baselines/PTR/vrp/checkpoints/actor.pt (torch, 732667 bytes, 14 tensors)

static_encoder.conv.weight f4 [128, 1, 1]
0.18919857 0.12341275 0.22902206 -0.31451324 0.3136345 -0.28684643 -0.07387642 0.27654153
-0.27572998 -0.26285967 0.16145371 -0.2593162 0.17107336 -0.113670684 -0.18242116 -0.20669258
0.16289921 -0.23947893 -0.21758804 0.21256365 0.15400429 0.072536096 0.3251783 -0.33548832
-0.17157896 -0.13438751 0.056726206 -0.29673174 -0.3121274 -0.057453282 0.20178442 0.19717571
0.23600915 -0.1343785 -0.31529 -0.3099587 -0.23911549 0.25074276 -0.24706876 0.25280368
-0.20360763 -0.33875242 -0.25394818 0.30543163 -0.11626262 0.031645205 -0.33322844 -0.28228283
0.18846355 -0.21152472 -0.1717517 0.31228018 0.16694607 -0.23421246 -0.28665996 0.19994925
-0.2907778 0.2156343 0.16863646 -0.13447493 0.10660212 -0.31242433 -0.16963191 -0.3083685
-0.2508794 -0.16284949 -0.17207089 0.19314423 0.32836458 -0.13849494 -0.3216123 -0.09731567
-0.31802878 -0.25071555 0.17184207 -0.30484414 0.19022045 -0.25322312 -0.14323817 -0.12114747
0.2585693 -0.1374539 -0.23813894 -0.11733123 0.27516308 -0.25606853 -0.13531382 -0.11663956
-0.26556376 0.3344986 -0.18664324 -0.20784791 -0.31952128 -0.22392923 0.15509418 -0.07331919
-0.15267552 -0.16140218 -0.31359994 0.31162658 0.21850914 -0.028286643 0.13792428 0.261902
-0.2441574 0.1422541 -0.16781957 -0.24127519 0.21302009 -0.12832546 0.12029731 -0.08748009
-0.284437 0.16659512 0.19951305 0.15297475 0.21424334 0.24742787 -0.25155634 -0.24807988
0.16092487 -0.23943661 -0.28871426 -0.123150066 0.33429724 0.067780115 0.22641602 0.10309261
00000000: 45bd 413e d3bf fc3d c284 6a3e e107 a1be
00000010: b494 a03e 89dd 92be 854c 97bd da96 8d3e
00000020: 7b2c 8dbe 8b95 86be 1f54 253e 18c5 84be
00000030: db2d 2f3e 2dcc e8bd 9dcc 3abe 38a7 53be
00000040: 0dcf 263e f739 75be 66cf 5ebe 49aa 593e
00000050: 4db3 1d3e ce8d 943d c57d a63e 20c5 abbe
00000060: 65b2 2fbe e19c 09be bd59 683d 39ed 97be
00000070: 2acf 9fbe 2254 6bbd 93a0 4e3e 6ee8 493e
00000080: 62ac 713e 849a 09be b16d a1be e8b2 9ebe
00000090: b1da 74be 5b61 803e 98ff 7cbe 7c6f 813e
000000a0: 857e 50be f570 adbe 7f05 82be 8961 9c3e
000000b0: 191b eebd 679e 013d eb9c aabe 6087 90be
000000c0: 97fc 403e f099 58be addf 2fbe 30e3 9f3e
000000d0: e9f3 2a3e 64d5 6fbe 18c5 92be 7fbf 4c3e
000000e0: d4e0 94be 3dcf 5c3e 09af 2c3e ccb3 09be
000000f0: 3652 da3d 15f6 9fbe fdb3 2dbe 7ae2 9dbe
00000100: 4473 80be 04c2 26be 5a33 30be 9ac7 453e
00000110: 671f a83e 9ed1 0dbe 5eaa a4be 704d c7bd
00000120: abd4 a2be ca5d 80be 5ef7 2f3e 8814 9cbe
00000130: 26c9 423e 76a6 81be 07ad 12be 2a1c f8bd
00000140: 3263 843e b7c0 0cbe b2da 73be 5b4b f0bd
00000150: 2de2 8c3e 6a1b 83be b58f 0abe b9e0 eebd
00000160: f9f7 87be 6743 ab3e 681f 3fbe 15d6 54be
00000170: 4b98 a3be b44d 65be 02d1 1e3e 5f28 96bd
00000180: f956 1cbe 9d46 25be 2c90 a0be 858d 9f3e
00000190: dcc0 5f3e 64b9 e7bc 063c 0d3e 0518 863e
000001a0: 6604 7abe 0fab 113e e5d8 2bbe d810 77be
000001b0: f021 5a3e c067 03be 705e f63d c328 b3bd
000001c0: baa1 91be e997 2a3e 264d 4c3e 6aa5 1c3e
000001d0: 9b62 5b3e bb5d 7d3e fecb 80be a708 7ebe
000001e0: 7dc9 243e df2e 75be 5bd2 93be 1a36 fcbd
000001f0: 0229 ab3e 4dd0 8a3d 9ad9 673e 3822 d33d

static_encoder.conv.bias f4 [128]
0.1959692 0.28507647 0.13836832 -0.72452587 0.51838 0.5757131 0.5663351 -0.8876323
-0.47185892 -0.5828691 0.19974962 -0.1081174 0.5188619 0.7593775 -0.38770163 0.013042922
-0.93060166 -0.2048664 -0.6021317 0.37468842 0.28799894 -0.79656136 -0.02374397 0.25281423
-0.6205372 -0.027166588 0.5188006 -0.09639264 0.6667622 0.91220623 0.15050535 0.59563404
0.8621659 -0.6810555 0.023084242 -0.58558726 -0.2972079 0.7862538 0.036990494 0.16641161
0.41432017 -0.60079163 0.026543204 -0.95169264 -0.39128667 0.65306437 0.24143907 0.29869756
0.8387022 0.39380786 0.64944065 -0.5320978 0.56152534 0.7906919 0.8340362 -0.55251575
-0.019818597 -0.29044887 -0.15613087 -0.6878927 0.62815475 0.33688965 -0.5239013 0.8489414
0.70319295 0.24259213 0.95176643 -0.4132294 -0.25556675 -0.65160286 0.38224342 -0.68002075
-0.67709947 0.84263396 0.71966577 -0.44258097 -0.8246031 0.19523051 -0.33512804 -0.8751928
0.26532894 -0.16418348 -0.17966485 -0.5569434 -0.016909936 -0.88097626 0.06029767 -0.2889252
0.25748602 -0.11884554 0.050900955 0.123945065 -0.09878676 0.82384247 0.3255068 0.43647516
0.4623398 -0.361638 -0.02018164 -0.08186455 -0.004763071 0.58135 0.8446295 -0.6426058
-0.07175191 0.030589182 0.70049983 -0.81737816 -0.08778868 -0.20497955 -0.8583291 -0.41156346
0.6354968 0.6501854 -0.41953462 -0.9454423 0.2731267 -0.99300224 -0.13921908 -0.5212463
0.23375481 -0.8305167 -0.21747679 -0.43134084 -0.01857134 0.48019338 -0.7599714 0.84176826
00000000: 26ac 483e 8bf5 913e 6db0 0d3e 877a 39bf
00000010: 8db4 043f ef61 133f 56fb 103f df3b 63bf
00000020: 7e97 f1be e936 15bf 2a8b 4c3e a86c ddbd
00000030: 22d4 043f 9066 423f d480 c6be fbb1 553c
00000040: e93b 6ebf 7fc8 51be 4e25 1abf 29d7 bf3e
00000050: 9974 933e 72eb 4bbf b782 c2bc de70 813e
00000060: 87db 1ebf 778c debc 1ed0 043f 8169 c5bd
00000070: edb0 2a3f 5986 693f 131e 1a3e 797b 183f
00000080: e8b6 5c3f a759 2ebf 2a1b bd3c 0ce9 15bf
00000090: a22b 98be ee47 493f 5883 173d ce67 2a3e
000000a0: c621 d43e 7bcd 19bf 2271 d93c 21a2 73bf
000000b0: ba56 c8be 3a2f 273f ce3b 773e e3ee 983e
000000c0: 30b5 563f 2fa1 c93e be41 263f 9037 08bf
000000d0: 20c0 0f3f c96a 4a3f 6583 553f ac71 0dbf
000000e0: 9c5a a2bc b7b5 94be c5e0 1fbe bc19 30bf
000000f0: c0ce 203f cd7c ac3e 651e 06bf 3954 593f
00000100: 7404 343f 126a 783e f7a6 733f ce92 d3be
00000110: a5d9 82be 72cf 26bf 69b5 c33e d715 2ebf
00000120: 6456 2dbf dcb6 573f 043c 383f f999 e2be
00000130: 3019 53bf 82ea 473e e795 abbe a30c 60bf
00000140: 32d9 873e b71f 28be 10fa 37be d893 0ebf
00000150: b586 8abc a987 61bf b1fa 763d 01ee 93be
00000160: 35d5 833e 4a65 f3bd 857d 503d e9d6 fd3d
00000170: b650 cabd 57e7 523f d4a8 a63e ac79 df3e
00000180: cdb7 ec3e 9e28 b9be f753 a5bc 9aa8 a7bd
00000190: 8913 9cbb 5bd3 143f a439 583f d081 24bf
000001a0: aaf2 92bd 2a96 fa3c f553 333f b23f 51bf
000001b0: 8dca b3bd 29e6 51be 75bb 5bbf 72b8 d2be
000001c0: ebaf 223f 8d72 263f 3ecd d6be 8208 72bf
000001d0: 43d7 8b3e 6535 7ebf 728f 0ebe 6670 05bf
000001e0: 6c5d 6f3e be9c 54bf 3cb2 5ebe b5d8 dcbe
000001f0: ec22 98bc e8db f53e 7c8d 42bf 207e 573f

dynamic_encoder.conv.weight f4 [128, 2, 1]
-0.073512346 -0.11957824 -0.16193816 -0.061314106 0.13635781 -0.07638158 0.15421551 -0.06498377
-0.12408504 0.021976147 -0.15071735 0.051651735 0.14280151 -0.17864725 0.12640281 -0.1036147
0.1299331 -0.14108923 0.2326617 0.025798708 0.05484404 -0.07092788 0.10413328 0.20462959
-0.049469702 0.15802284 -0.15508819 -0.060950514 -0.091245115 -0.124845766 -0.122495964 0.016432373
0.10245958 -0.17933606 0.016173337 -0.18673971 -0.12510955 0.031517424 0.10178021 0.16830552
-0.09269676 -0.008965459 -0.052263387 -0.20824994 0.19043933 -0.03232047 -0.055528563 -0.15690948
0.19793686 0.037981797 -0.1906292 -0.15891264 0.011002065 0.17198287 -0.115200266 -0.10884915
0.032158658 -0.08092051 -0.083155595 0.15307526 0.12490899 0.037767768 0.043308515 -0.078078024
-0.18837042 -0.12565704 -0.09808074 0.11770763 0.16051352 0.08434921 0.090730324 0.12132126
-0.067043275 -0.019001685 -0.034767028 -0.03628692 0.1002132 -0.1789177 0.0789266 0.025879452
0.22434688 0.018108731 -0.08598728 0.01821312 0.0890913 0.09778213 -0.15590113 -0.13898222
-0.14405148 0.21519363 -0.08397467 0.06267855 -0.15033701 -0.004180712 -0.03774745 0.05219772
0.19065769 -0.05434473 -0.21297266 -0.049291056 -0.10298984 -0.20217559 -0.13222836 -0.042018037
0.067011744 0.17197019 0.0045862845 -0.13381687 -0.15819792 -0.015128718 0.10320987 0.027923016
0.13471562 -0.14346725 0.17942835 0.08517122 0.028627064 0.17735991 0.076633856 -0.009491024
0.19935957 0.118860275 -0.02655465 0.06211345 0.2072626 0.1424893 -0.048503462 0.19738775
-0.11738808 0.08980205 -0.11899203 0.07663379 0.18881787 0.13379106 0.15780431 -0.17237888
-0.043188326 -0.017588222 -0.1808221 0.12908316 -0.03917421 0.07894919 0.24067304 0.14742444
0.048104562 -0.20899285 0.09506514 0.20439029 -0.16943924 -0.13535337 0.14850506 -0.21505727
-0.06562378 0.1318145 0.029151864 0.0732471 0.098667406 -0.16615441 -0.17787392 -0.0050607533
0.22858895 0.03664419 0.10006964 0.16170986 0.023726732 -0.015845176 0.17095213 0.075083606
0.029724868 -0.21068813 -0.025921654 0.003792001 0.04674434 0.032924853 -0.20203286 -0.17862822
0.17564955 0.18183601 -0.13159521 0.0019228788 -0.16667062 0.1646435 0.042498764 0.109765105
-0.02487995 -0.12691867 -0.08810003 0.18526 0.172453 -0.16192947 -0.048484575 -0.036713257
-0.08392932 -0.06346303 0.043011114 0.05773091 0.04151278 0.112800196 -0.18508066 -0.117109574
-0.06763853 -0.14827521 7.056658e-05 0.10052685 0.08520609 0.1685239 0.041820943 0.14152403
0.1884551 -0.14390357 0.21794981 0.14442731 -0.110186115 0.112697005 -0.07421755 -0.15204571
-0.054808997 0.042627983 -0.049871434 0.1703108 -0.014468343 -0.09677731 -0.054384947 0.11619001
0.079363406 0.08402584 0.016764281 0.0022688047 0.048405007 0.1392651 -0.011571197 -0.12651809
-0.13350996 -0.16577877 -0.038247894 0.0038882548 -0.16611381 0.002502971 0.07508544 -0.031302523
0.16780621 -0.20419265 0.18225336 0.0032429092 0.17275897 0.12129975 -0.06988651 0.029653557
0.040020242 -0.17811082 0.039371703 -0.19237551 0.0715537 0.1773461 -0.15668339 -0.2037394
00000000: a48d 96bd 70e5 f4bd 1ed3 25be 8024 7bbd
00000010: 62a1 0b3e f26d 9cbd acea 1d3e 3616 85bd
00000020: 4c20 febd 5207 b43c a655 1abe c590 533d
00000030: 8f3a 123e 4eef 36be bd6f 013e f233 d4bd
00000040: 2f0d 053e b279 10be de3e 6e3e d057 d33c
00000050: 25a4 603d a342 91bd d443 d53d 6b8a 513e
00000060: bea0 4abd bdd0 213e 70cf 1ebe 3fa7 79bd
00000070: b8de babd 23af ffbd 2adf fabd 2f9d 863c
00000080: 54d6 d13d dfa3 37be f27d 843c b238 3fbe
00000090: b81c 00be 6a18 013d 2572 d03d 4858 2c3e
000000a0: cdd7 bdbd dce3 12bc 2212 56bd 793f 55be
000000b0: 8702 433e 7862 04bd eb71 63bd e1ac 20be
000000c0: f6af 4a3e cd92 1b3d 4d34 43be ffb9 22be
000000d0: 0142 343c 471c 303e 1eee ebbd 4eec debd
000000e0: ccb8 033d a7b9 a5bd 7b4d aabd c3bf 1c3e
000000f0: 49d0 ff3d 60b2 1a3d 4564 313d 5fe7 9fbd
00000100: 2de4 40be 3dac 00be 8ede c8bd b310 f13d
00000110: a85d 243e 47bf ac3d d2d0 b93d 4877 f83d
00000120: fc4d 89bd 6ca9 9bbc df67 0ebd 98a1 14bd
00000130: 943c cd3d 3436 37be 45a4 a13d 2501 d43c
00000140: 30bb 653e c358 943c 191a b0bd ae33 953c
00000150: 8075 b63d ff41 c83d 8ca4 1fbe 5b51 0ebe
00000160: 3b82 13be b85b 5c3e e9fa abbd 9d5d 803d
00000170: f2f1 19be 5bfe 88bb 129d 1abd 47cd 553d
00000180: c53b 433e 9498 5ebd 8115 5abe 6be5 49bd
00000190: 56ec d2bd 1e07 4fbe df66 07be 1b1b 2cbd
000001a0: 743d 893d f418 303e 8b48 963b 4a07 09be
000001b0: a3fe 21be 71de 77bc b25f d33d cfbe e43c
000001c0: e4f2 093e 14e9 12be 11bc 373e 406e ae3d
000001d0: 4e83 ea3c d69d 353e 36f2 9c3d 3d80 1bbc
000001e0: ea24 4c3e 046d f33d 2389 d9bc ac6a 7e3d
000001f0: a63c 543e b7e8 113e 91ab 46bd 0420 4a3e
00000200: 2969 f0bd 23ea b73d 18b2 f3bd 2df2 9c3d
00000210: 7959 413e 8600 093e 7497 213e 1784 30be
00000220: 3ee6 30bd 2d15 90bc 6e29 39be 602e 043e
00000230: 2375 20bd 1db0 a13d fe72 763e 6ff6 163e
00000240: 4a09 453d 3902 56be 83b1 c23d b04b 513e
00000250: 7b81 2dbe 139a 0abe b611 183e f937 5cbe
00000260: c365 86bd 61fa 063e e4cf ee3c 9302 963d
00000270: 2312 ca3d 6224 2abe 9524 36be add4 a5bb
00000280: 3913 6a3e 3818 163d 50f1 cc3d 4597 253e
00000290: 905e c23c becd 81bc 130e 2f3e 6fc5 993d
000002a0: 9181 f33c a1be 57be a659 d4bc 3883 783b
000002b0: fe76 3f3d 36dc 063d b4e1 4ebe 51ea 36be
000002c0: 7add 333e 3833 3a3e e5c0 06be 1b09 fc3a
000002d0: b4ab 2abe 4e98 283e 2f13 2e3d 87cc e03d
000002e0: 09d1 cbbc f8f6 01be ca6d b4bd ccb4 3d3e
000002f0: 8597 303e d7d0 25be c397 46bd a460 16bd
00000300: 23e3 abbd e8f8 81bd 6c2c 303d 3f77 6c3d
00000310: 4e09 2a3d ca03 e73d c985 3dbe 25d7 efbd
00000320: 1286 8abd 75d5 17be 25fd 9338 05e1 cd3d
00000330: 8880 ae3d 8791 2c3e 704c 2b3d adeb 103e
00000340: 60fa 403e 755b 13be 3c2e 5f3e c1e4 133e
00000350: 42a9 e1bd b0cd e63d 5fff 97bd dfb1 1bbe
00000360: 667f 60bd ae9a 2e3d fd45 4cbd f465 2e3e
00000370: a10c 6dbc 2f33 c6bd c0c2 5ebd 07f5 ed3d
00000380: 4889 a23d bd15 ac3d 3f55 893c 3ab0 143b
00000390: 5444 463d 839b 0e3e 1e95 3dbc f58d 01be
000003a0: d6b6 08be e9c1 29be d3a9 1cbd 17d2 7e3b
000003b0: bd19 2abe e308 243b 65c6 993d 1337 00bd
000003c0: 64d5 2b3e e117 51be a0a0 3a3e fd86 543b
000003d0: bae7 303e 016c f83d a920 8fbd 04ec f23c
000003e0: 44ec 233d af62 36be 3944 213d 16fe 44be
000003f0: bf8a 923d 379a 353e 9c71 20be 10a1 50be

dynamic_encoder.conv.bias f4 [128]
-0.3600899 -0.14288166 0.0042578494 0.08557079 0.5553587 0.28800192 -0.4202856 -0.6410767
0.29555115 -0.5812105 -0.009812143 -0.53754216 0.66549873 -0.24706094 -0.26619518 0.045599494
-0.3571813 0.55246925 0.118156336 0.24763705 0.4550723 0.26693636 -0.20038497 0.17020772
-0.56613016 -0.22338359 0.31252873 0.47075722 0.42712745 0.5295917 -0.31875932 -0.64784944
-0.4385302 0.09409948 0.45935422 0.5059419 0.06479937 0.61515 -0.06379028 0.24932511
-0.59870964 -0.13370158 0.45588616 0.18049768 0.264611 -0.2929266 0.43592447 0.54505044
-0.17847835 0.4756826 0.38643354 -0.090685435 0.67607844 -0.16535202 -0.32354543 -0.122521035
-0.10384276 0.24082603 0.100398384 0.33549166 -0.07559735 0.64957243 -0.11222331 0.07832961
0.66445374 -0.16286968 -0.5939458 -0.34586364 0.5883914 -0.11411945 0.52255106 -0.53372675
0.16984108 -0.11699416 -0.5443051 0.4748958 -0.4070416 0.046277743 0.48803562 0.62068385
-0.2626275 -0.1702315 -0.11493826 0.13332413 -0.6636902 -0.4329013 -0.5605236 -0.21655867
-0.47582465 -0.106538095 -0.45950273 0.5157617 -0.46615088 0.40036225 -0.36175683 -0.11424412
0.07081584 -0.24253933 -0.15072003 -0.4204809 0.10257076 -0.13394134 0.35839787 -0.39389494
-0.12994002 0.6027321 0.5506706 0.29634804 -0.44990036 0.4061131 -0.55389255 -0.21500243
0.034405027 -0.09806827 0.052519266 -0.63501024 -0.3120998 -0.11517724 0.28457105 0.19798255
-0.43025497 0.44860825 -0.38567638 0.40875092 -0.54575187 -0.6538136 -0.4458128 0.32434753
00000000: b45d b8be 924f 12be 6e85 8b3b bd3f af3d
00000010: fd2b 0e3f fd74 933e ad2f d7be 9a1d 24bf
00000020: 7b52 973e 36ca 14bf 1cc3 20bc 5d9c 09bf
00000030: 205e 2a3f 8bfd 7cbe bc4a 88be 89c6 3a3d
00000040: 78e0 b6be a06e 0d3f f3fb f13d 9194 7d3e
00000050: 3dff e83e e2ab 883e b831 4dbe ef4a 2e3e
00000060: e8ed 10bf abbe 64be c403 a03e 1707 f13e
00000070: 73b0 da3e 5293 073f 6c34 a3be 76d9 25bf
00000080: 0887 e0be 3ab7 c03d 7a30 eb3e 6985 013f
00000090: 88b5 843d 787a 1d3f 7aa4 82bd 154f 7f3e
000000a0: 0945 19bf 11e9 08be e969 e93e 62d4 383e
000000b0: 187b 873e 7afa 95be 7e31 df3e 6d88 0b3f
000000c0: 07c3 36be ab8c f33e 9eda c53e 49b9 b9bd
000000d0: 7a13 2d3f 0a52 29be bfa7 a5be 4fec fabd
000000e0: 83ab d4bd 199b 763e ab9d cd3d 90c5 ab3e
000000f0: c9d2 9abd 614a 263f 56d5 e5bd 466b a03d
00000100: a419 2a3f 4fc7 26be d50c 18bf 0a15 b1be
00000110: d2a0 163f 75b7 e9bd e8c5 053f 51a2 08bf
00000120: d2ea 2d3e a29a efbd 9457 0bbf 8b25 f33e
00000130: c267 d0be bb8d 3d3d cedf f93e 23e5 1e3f
00000140: 1d77 86be 2b51 2ebe c064 ebbd 1f86 083e
00000150: 9ae7 29bf 3da5 ddbe 7a7e 0fbf 8ec1 5dbe
00000160: 4a9f f3be a530 dabd f143 ebbe f508 043f
00000170: 54ab eebe 48fc cc3e 3138 b9be d2f8 e9bd
00000180: e507 913d 3b5c 78be 5a56 1abe 4649 d7be
00000190: 9e10 d23d eb27 09be ed7f b73e 99ac c9be
000001a0: ff0e 05be a74c 1a3f c0f8 0c3f eeba 973e
000001b0: 5759 e6be 0eee cf3e e7cb 0dbf 9929 5cbe
000001c0: 49ec 0c3d 04d8 c8bd 711e 573d 0890 22bf
000001d0: 8ccb 9fbe 0be2 ebbd 4cb3 913e f0bb 4a3e
000001e0: 614a dcbe fbaf e53e 6077 c5be cd47 d13e
000001f0: 65b6 0bbf 5460 27bf 9341 e4be e110 a63e

decoder.conv.weight f4 [128, 1, 1]
0.13672212 0.15780391 -0.056873266 -0.01085649 0.06115619 0.08170377 -0.0061184336 0.15115646
0.039332796 0.14110431 0.012324868 0.1027155 0.019781495 0.14300218 -0.017170709 0.20631152
0.1735013 0.11215135 0.05980073 0.16823545 -0.21005945 -0.10574703 -0.2154406 -0.19632648
-0.0035497413 0.03780139 -0.087878235 0.20488128 0.06875721 0.12500091 -0.04225619 -0.052544657
0.20260887 -0.1674928 0.14224435 -0.12042825 0.19703059 -0.10043059 0.09934891 -0.040097356
-0.150852 -0.025960775 0.047693897 -0.061712738 -0.07325684 2.3210432e-05 0.17606725 0.022277456
-0.04995878 -0.11285452 0.11270609 0.16728589 -0.18810962 -0.05295341 0.08186367 -0.19836606
0.09811483 0.069704026 0.14337239 -0.102788225 -0.15809116 -0.1660881 -0.07066339 0.18698047
0.14518303 -0.15466946 0.18901165 -0.0016478109 -0.19980392 0.14598283 0.16968238 0.20401517
0.07205903 -0.12881392 0.08646244 -0.11985383 -0.08772606 -0.016463319 0.018355109 -0.071645126
-0.02639532 0.13101126 -0.12146931 0.14399196 -0.18059567 0.0986683 0.014636383 0.05980172
-0.016966915 0.040646084 0.18459696 0.018309034 -0.07759792 0.1263701 0.042711854 -0.12202476
-0.07702635 -0.12374283 -0.04679618 -0.16655032 0.1348307 0.13175039 0.16134712 0.1456021
0.031112619 0.17271146 -0.032794066 0.20696366 0.19105919 0.056699995 0.19227602 0.14345773
0.089606434 0.10607767 -0.17912288 -0.16137162 0.1862163 -0.12496881 0.22768283 -0.06364663
-0.013701772 0.12763946 -0.19177437 -0.1544805 0.070607014 -0.05511657 -0.12117308 -0.095820755
00000000: e200 0c3e 5997 213e f1f3 68bd 6bdf 31bc
00000010: ea7e 7a3d 4e54 a73d 247d c8bb c2c8 1a3e
00000020: 6d1b 213d a67d 103e 3eee 493c 815c d23d
00000030: cd0c a23c 2a6f 123e 96a9 8cbc 5443 533e
00000040: 53aa 313e 9baf e53d 9cf1 743d ea45 2c3e
00000050: d319 57be e691 d8bd 769c 5cbe cf09 49be
00000060: c7a2 68bb a1d5 1a3d 81f9 b3bd 66cc 513e
00000070: 95d0 8c3d 3d00 003e d414 2dbd 1139 57bd
00000080: b378 4f3e 3c83 2bbe 81a8 113e 16a3 f6bd
00000090: 63c2 493e 8eae cdbd 7177 cb3d 203d 24bd
000000a0: f278 1abe b1ab d4bc ad5a 433d 7fc6 7cbd
000000b0: af07 96bd 06b4 c237 f94a 343e 367f b63c
000000c0: 94a1 4cbd 4520 e7bd 73d2 e63d fe4c 2b3e
000000d0: cf9f 40be ade5 58bd 24a8 a73d 7920 4bbe
000000e0: 6ef0 c83d fcc0 8e3d 36d0 123e a282 d2bd
000000f0: a6e2 21be 0013 2abe f8b7 90bd cf77 3f3e
00000100: dcaa 143e ac61 1ebe 458c 413e 5cfb d7ba
00000110: 6699 4cbe 867c 153e 38c1 2d3e 5ae9 503e
00000120: af93 933d cce7 03be 3813 b13d ed75 f5bd
00000130: b8a9 b3bd 15de 86bc 745d 963c aeba 92bd
00000140: 003b d8bc d127 063e e7c4 f8bd a172 133e
00000150: 12ee 38be 9b12 ca3d 71cd 6f3c a6f2 743d
00000160: 33fe 8abc 827c 263d fc06 3d3e d4fc 953c
00000170: a9eb 9ebd 2a67 013e a0f2 2e3d 1ee8 f9bd
00000180: febf 9dbd e16c fdbd 5aad 3fbd 2b8c 2abe
00000190: 0f11 0a3e 93e9 063e 2e38 253e b818 153e
000001a0: e4df fe3c 46db 303e 1253 06bd 48ee 533e
000001b0: 05a5 433e 413e 683d 01e4 443e 95e6 123e
000001c0: 9483 b73d 403f d93d fd6b 37be 9a3e 25be
000001d0: 7caf 3e3e a6ef ffbd b025 693e 2a59 82bd
000001e0: 667d 60bc ebb3 023e 8060 44be 2330 1ebe
000001f0: 699a 903d eac1 61bd 9729 f8bd ac3d c4bd

decoder.conv.bias f4 [128]
0.887934 -0.79348415 -0.61888444 0.8592531 0.315826 0.54034334 -1.0178664 -0.95045364
0.47059423 -0.31704834 -0.13903242 0.646344 0.17875202 -0.7812572 -0.5965567 0.0654253
-0.7137212 -0.39028883 -0.22780308 0.2497526 0.28305092 0.9012278 0.95325667 -0.40948954
0.9979064 -0.7929573 -0.36360323 -0.29014164 -0.092078306 0.11619035 0.4923148 -0.9406553
-0.8981657 -0.59782195 0.83129966 -0.51168483 -0.27978522 -0.3572042 -0.031558406 -0.87610614
-0.13844033 0.40471298 -0.06496949 -0.61456925 -0.7329504 0.5317182 -0.82639974 0.5639696
0.72504646 0.8004276 0.14490886 -0.08539239 -0.48292622 -0.6004181 0.88982457 -0.30712968
0.9152478 -0.49603412 -0.3485311 -0.43049046 0.91269785 -0.09555038 0.25743273 0.5506988
0.104327574 0.40131408 -0.22560468 0.274585 0.5198461 0.95335186 0.5999661 -0.72587496
-0.420526 -0.5841925 0.6813057 0.2778824 -0.29474935 -0.8619483 0.6698804 0.31138337
0.091430165 0.21407524 0.6238718 -0.8802868 0.71336865 -0.83935714 -0.93159515 -0.966424
-0.5832349 0.021041535 0.5893197 -0.012695787 0.41253132 -0.48945323 0.5490043 0.84231704
-0.88475716 -0.3187478 0.6282951 -0.9302282 0.5643096 -0.16279 0.89875436 0.5748735
1.0078548 -0.7107402 0.6996584 0.008503044 -0.044203203 -0.27160594 -0.97122467 0.32561538
-0.19104245 -0.6866264 0.7202409 -0.6013051 0.984583 0.1913503 -0.9016451 0.7420637
-0.062648535 -0.4037088 0.14117372 0.7493479 0.62229204 0.67862797 -0.1544505 0.57323366
00000000: a54f 633f c721 4bbf 366f 1ebf 03f8 5b3f
00000010: f2b3 a13e f153 0a3f 7249 82bf ee50 73bf
00000020: baf1 f03e 2954 a2be 845e 0ebe cd76 253f
00000030: c50a 373e 7900 48bf f1b7 18bf b3fd 853d
00000040: 6fb6 36bf f0d3 c7be 3645 69be 25bf 7f3e
00000050: 0dec 903e ddb6 663f a108 743f 9da8 d1be
00000060: cb76 7f3f 40ff 4abf 342a babe 728d 94be
00000070: 8d93 bcbd 35f5 ed3d af10 fc3e c9ce 70bf
00000080: 30ee 65bf dc0a 19bf 0ed0 543f c7fd 02bf
00000090: 0240 8fbe 78e3 b6be 6343 01bd 7e48 60bf
000000a0: 4dc3 0dbe 8a36 cf3e b90e 85bd 6954 1dbf
000000b0: a3a2 3bbf af1e 083f ef8e 53bf 5060 103f
000000c0: a59c 393f d3e8 4c3f fd62 143e 35e2 aebd
000000d0: 1b42 f7be 00b5 19bf 8bcb 633f 1a40 9dbe
000000e0: ae4d 6a3f 2ff8 fdbe ab72 b2be 3f69 dcbe
000000f0: 91a6 693f ebaf c3bd 39ce 833e 99fa 0c3f
00000100: b2a9 d53d 0a79 cd3e ea04 67be 6896 8c3e
00000110: a214 053f de0e 743f 6197 193f f1d2 39bf
00000120: 2f4f d7be a48d 15bf 0d6a 2e3f 9a46 8e3e
00000130: 63e9 96be a5a8 5cbf 487d 2b3f a46d 9f3e
00000140: bd3f bb3d 8a36 5b3e 10b6 1f3f 7a5a 61bf
00000150: 549f 363f 1ce0 56bf 057d 6ebf 9067 77bf
00000160: e24e 15bf 4c5f ac3c a8dd 163f fd01 50bc
00000170: 4e37 d33e 9d99 fabe 8c8b 0c3f 17a2 573f
00000180: 727f 62bf e932 a3be f3d7 203f 6f23 6ebf
00000190: 9876 103f 6cb2 26be c414 663f e92a 133f
000001a0: 6301 813f 12f3 35bf d01c 333f 5a50 0b3c
000001b0: 6b0e 35bd ef0f 8bbe 2ea2 78bf 0fb7 a63e
000001c0: a2a0 43be bfc6 2fbf b561 383f 22ef 19bf
000001d0: a20d 7c3f 55f1 433e 37d2 66bf e3f7 3d3f
000001e0: e04d 80bd ebb2 cebe d88f 103e 44d5 3f3f
000001f0: 884e 1f3f 90ba 2d3f 4628 1ebe 71bf 123f

pointer.v f4 [1, 1, 128]
0.23489453 -0.12701844 0.10715286 0.15973513 0.22165863 -0.15208845 -0.2587984 -0.2015083
0.2044965 -0.18226463 0.22631116 0.11380689 0.07591639 -0.15519238 0.20433772 0.23217194
0.13314383 -0.19114745 -0.21683665 -0.21410511 0.22223489 -0.16197096 0.13542832 -0.2668372
0.1574854 -0.17915599 -0.25465047 -0.22042128 -0.20467924 -0.2434113 -0.1710024 0.2545338
-0.2524313 0.27807528 0.09557591 0.09073149 -0.16075729 0.1418109 0.2571314 -0.1432314
0.20206444 0.20612046 -0.11346434 0.18148074 -0.13433589 0.17305687 0.21174756 0.17057262
0.13669363 0.23513828 -0.17114866 -0.13531803 -0.25114715 0.22962102 0.26032823 0.27417305
0.1562097 0.22946614 0.1901465 -0.0860441 -0.1465539 0.18189089 -0.20967768 0.15682448
-0.17516345 0.12439329 0.19455738 -0.25832665 0.158987 0.08044384 -0.2587095 0.17575279
-0.14852527 -0.08958437 -0.18345906 0.12469763 -0.16706438 -0.26918715 0.23356375 -0.15928665
-0.26449153 -0.24394982 0.068788245 -0.19279106 -0.24341269 0.25290412 -0.15080279 -0.19088964
0.19496137 -0.17490408 -0.18499762 -0.24132408 0.22881705 -0.26016057 -0.039286755 0.2810653
-0.20861346 0.19890048 -0.25566965 -0.23265454 -0.23800929 0.23667885 0.17316288 -0.16991714
0.24195768 0.18409935 -0.15759906 0.2501541 -0.12784298 -0.2408875 -0.1819073 -0.20498432
0.21819863 0.22321334 0.16227451 -0.27592182 0.24251905 -0.15563169 -0.1986252 0.14437304
0.17754446 0.21189082 -0.23191464 0.2058968 0.21030529 -0.2507693 0.20274338 -0.08574127
00000000: 3188 703e 1f11 02be f572 db3d 9b91 233e
00000010: 7bfa 623e 13bd 1bbe 3981 84be 3158 4ebe
00000020: 8867 513e 94a3 3abe 1dbe 673e 9613 e93d
00000030: 0d7a 9b3d c0ea 1ebe e83d 513e 7bbe 6d3e
00000040: db56 083e 28bc 43be 6d0a 5ebe 5f3e 5bbe
00000050: 8b91 633e b7db 25be b9ad 0a3e e39e 88be
00000060: da43 213e ab74 37be 8c61 82be 1eb6 61be
00000070: 6f97 51be d040 79be 411b 2fbe 4152 823e
00000080: ad3e 81be e25f 8e3e 4dbd c33d 6ed1 b93d
00000090: 8f9d 24be e036 113e baa6 833e 41ab 12be
000000a0: fbe9 4e3e 3e11 533e fe5f e8bd 16d6 393e
000000b0: 598f 09be d235 313e 5ad4 583e 97aa 2e3e
000000c0: 6af9 0b3e 17c8 703e 9841 2fbe cf90 0abe
000000d0: 5c96 80be c621 6b3e be49 853e 6960 8c3e
000000e0: 70f5 1f3e 2cf9 6a3e c4b5 423e e437 b0bd
000000f0: 3a12 16be 9b41 3a3e bfb5 56be 9996 203e
00000100: 0c5e 33be e9c1 fe3d 0d3a 473e 6443 84be
00000110: 7dcd 223e bdbf a43d 9275 84be 8af8 333e
00000120: 0217 18be 0378 b7bd b1dc 3bbe 7961 ff3d
00000130: ed12 2bbe e6d2 89be 562b 6f3e 0a1c 23be
00000140: 6f6b 87be fbcd 79be dae0 8c3d 056b 45be
00000150: 2d41 79be a67c 813e 0c6c 1abe 9378 43be
00000160: f4a3 473e 0e1a 33be 0470 3dbe a91d 77be
00000170: 044f 6a3e c433 85be 26eb 20bd cae7 8f3e
00000180: c49e 55be 91ac 4b3e 22e7 82be fe3c 6ebe
00000190: b5b8 73be f15b 723e 9c51 313e c2fe 2dbe
000001a0: c1c3 773e 8a84 3c3e a661 21be 3314 803e
000001b0: 45e9 02be 36ab 76be e845 3abe 69e7 51be
000001c0: 766f 5f3e 0a92 643e 4a2b 263e a045 8dbe
000001d0: ea56 783e ea5d 1fbe 6864 4bbe 87d6 133e
000001e0: 37ce 353e e8f9 583e 087b 6dbe 9cd6 523e
000001f0: 455a 573e d564 80be f69b 4f3e 1e99 afbd

pointer.W f4 [1, 128, 256]
0.037561882 0.041950002 0.06568309 -0.042770673 0.05323734 -0.10138377 -0.017034106 0.07265392
-0.04752947 -0.018789176 0.03190882 -0.07216001 0.029362235 -0.030385848 -0.035159677 -0.09452226
0.06160354 -0.07204244 -0.035848685 0.039509334 0.022913003 0.026005937 0.08777003 -0.089805245
-0.006178851 -0.08461688 -0.0009866232 -0.08057848 -0.08717178 -0.012688396 0.05250843 0.013642025
0.013383687 -0.007643845 -0.086178176 -0.036635857 -0.038431108 0.016947534 -0.08318079 0.05519471
-0.1046301 -0.043087777 -0.09169616 0.09103264 -0.029634155 -0.0012195149 -0.105613336 -0.10013531
-0.0022350708 -0.10517823 -0.060900684 0.100942954 0.0034444947 -0.0867114 -0.087237254 0.0754485
-0.0976144 0.09512001 0.12205471 -0.012413746 0.0044939783 -0.109539725 -0.015726449 -0.07730571
-0.09483014 -0.108465284 -0.055921435 0.09328605 0.108352564 -0.0038094874 -0.09679346 -0.011291315
-0.042074125 -0.07763793 0.020336373 -0.054386254 0.059719693 -0.11788784 -0.009812023 0.0018399725
0.05140817 -0.049417518 -0.074559525 -0.012832154 0.09938428 -0.018337507 -0.13078073 -0.037505534
-0.09688457 0.08768286 -0.09827034 -0.09905218 -0.07299949 -0.07584457 0.019560056 -0.024435982
-0.083240874 -0.017447447 -0.097145386 0.10942584 0.085002035 -0.015187887 -0.009095623 0.08586147
-0.08007073 0.113062724 -0.053223487 -0.0081622135 0.10566273 -0.041417487 0.036529254 0.0021149204
-0.10249323 0.0021158818 0.1040376 0.047833502 0.036310703 0.077518314 -0.08418253 -0.02720314
0.027812345 -0.031553116 -0.07099737 -0.023946794 0.09476938 0.010969418 0.07400315 -0.0013460899
-0.001648118 -0.010504099 -0.019574394 0.01744502 -0.0180719 0.0009373755 -0.0065656514 0.0025881128
0.022806177 0.023720238 -0.017373987 0.0033721174 -0.021645624 0.0019144567 0.009826073 0.04142242
0.011201531 0.017755032 0.016957296 0.0015250312 -0.002239993 0.017077297 -0.01366069 -0.0086749615
0.017565656 0.027098112 -0.021368137 0.020345774 -0.019216178 -0.0032582937 -0.020090299 -0.007927317
-0.014714745 0.003235679 0.028238714 0.003202434 -0.000360029 -0.00038534513 0.014287045 -0.022849487
-0.014615538 0.02215055 -0.021545185 0.0027900618 0.0080538085 -0.01722956 -0.01185672 -0.008498759
-0.011119341 -0.006155069 -0.014060924 0.012550852 -0.0028440491 -0.01328231 -0.0040859436 0.006729459
0.023480687 0.0027380076 -0.0027992914 0.0014881084 0.0011201015 -0.020845665 0.00013547826 -0.008943112
-0.02119271 -0.019452272 -0.010692157 0.0006556233 0.0007770114 0.009342862 0.002068652 0.0011534852
0.0069980784 0.0024490352 -0.009406062 0.01931861 0.0037416143 -0.0141817825 0.01835705 0.020489316
-0.0045186696 0.010928906 0.006963984 0.011935815 -0.03125501 -0.0027859602 -0.008643708 0.023900215
-0.011650105 -0.0042543393 0.007932496 0.00012269747 0.0069751455 -0.0011062693 -0.003661715 -0.010876309
-0.007096698 0.012516199 0.010739596 0.0034263504 -0.0092691155 0.00086648815 -0.008558722 0.019099632
0.009679623 -0.01187614 0.0029370275 -0.0028381564 0.0016529445 0.0022014983 0.017096316 0.018780014
-0.0120157525 -0.01443066 0.01797961 0.004055826 -0.0028924623 0.013142958 0.0112010995 0.021991856
0.0007488966 0.015699772 -0.001290341 0.013861273 -0.04180307 -0.018154958 0.010513182 -0.004228047
00000000: 7dda 193d c4d3 2b3d db84 863d 4d30 2fbd
00000010: 660f 5a3d 4ba2 cfbd 1c8b 8bbc 94cb 943d
00000020: 43ae 42bd c2eb 99bc d3b2 023d a1c8 93bd
00000030: 1289 f03c beeb f8bc 9803 10bd e394 c1bd
00000040: fe53 7c3d fd8a 93bd 12d6 12bd 8ad4 213d
00000050: 0db4 bb3c 670a d53c c6c0 b33d d0eb b7bd
00000060: f577 cabb 9d4b adbd 9551 81ba 5506 a5bd
00000070: 1e87 b2bd fde2 4fbc 1413 573d cd82 5f3c
00000080: 4047 5b3c 3879 fabb 2f7e b0bd 7b0f 16bd
00000090: f069 1dbd 8ed5 8a3c b15a aabd d913 623d
000000a0: 4e48 d6bd cf7c 30bd 32cb bbbd 526f ba3d
000000b0: 54c3 f2bc 21d8 9fba ce4b d8bd be13 cdbd
000000c0: 447a 12bb af67 d7bd ff72 79bd 2ebb ce3d
000000d0: 08bd 613b bf95 b1bd 72a9 b2bd be84 9a3d
000000e0: 0fea c7bd 48ce c23d d2f7 f93d 0663 4bbc
000000f0: 3942 933b 5d56 e0bd c1d4 80bc 7552 9ebd
00000100: 4e36 c2bd 0c23 debd e00d 65bd c20c bf3d
00000110: f3e7 dd3d 98a8 79bb a63b c6bd 35ff 38bc
00000120: eb55 2cbd a300 9fbd 7798 a63c 1fc4 5ebd
00000130: a39c 743d 2e6f f1bd 9bc2 20bc 3b2b f13a
00000140: 6091 523d 066a 4abd aab2 98bd f43d 52bc
00000150: fc89 cb3d 8a38 96bc 62eb 05be 679f 19bd
00000160: 6b6b c6bd 1293 b33d f641 c9bd dfdb cabd
00000170: c280 95bd 6654 9bbd 693c a03c f82d c8bc
00000180: 317a aabd f3ed 8ebc 29f4 c6bd a81a e03d
00000190: 8c15 ae3d 9dd6 78bc cf05 15bc 23d8 af3d
000001a0: 1ffc a3bd 6e8d e73d df00 5abd ceba 05bc
000001b0: b465 d83d 62a5 29bd b39f 153d 7a9a 0a3b
000001c0: f8e7 d1bd 9baa 0a3b aa11 d53d 10ed 433d
000001d0: 88ba 143d ecc1 9e3d e467 acbd 1fd9 debc
000001e0: b7d6 e33c d73d 01bd 1267 91bd 112c c4bc
000001f0: 7316 c23d 13b9 333c f78e 973d 486f b0ba
00000200: aa05 d8ba 6219 2cbc 7b5a a0bc dce8 8e3c
00000210: 850b 94bc 34ba 753a ad24 d7bb 549d 293b
00000220: 05d4 ba3c f250 c23c e453 8ebc befe 5c3b
00000230: 2a52 b1bc 82ee fa3a 8afd 203c 8eaa 293d
00000240: a086 373c 0073 913c 07ea 8a3c 8ee3 c73a
00000250: d9cc 12bb b0e5 8b3c 16d1 5fbc 6d21 0ebc
00000260: dae5 8f3c dcfc dd3c 3b0c afbc 2eac a63c
00000270: 3f6b 9dbc 1989 55bb 6994 a4bc 94e1 01bc
00000280: 1d16 71bc af0d 543b e054 e73c eddf 513b
00000290: 46c2 bcb9 2608 cab9 3614 6a3c d92e bbbc
000002a0: 0276 6fbc 1275 b53c 877f b0bc 78d9 363b
000002b0: 1ff4 033c 0225 8dbc b042 42bc 613e 0bbc
000002c0: e52d 36bc 76b0 c9bb ca5f 66bc 17a2 4d3c
000002d0: 3a63 3abb 0c9e 59bc 61e3 85bb cb82 dc3b
000002e0: 925a c03c 2570 333b 5174 37bb a20c c33a
000002f0: 5fd0 923a 87c4 aabc 2b0f 0e39 2186 12bc
00000300: 569c adbc 5f5a 9fbc 282e 2fbc 23de 2b3a
00000310: 5ab0 4b3a ce12 193c 3992 073b 8a30 973a
00000320: 2350 e53b fe7f 203b e21b 1abc 1042 9e3c
00000330: df35 753b b55a 68bc 8661 963c 36d9 a73c
00000340: 5911 94bb 270f 333c 2232 e43b 708e 433c
00000350: 4105 00bd a894 36bb 579e 0dbc 62ca c33c
00000360: 15e0 3ebc fc67 8bbb 4df7 013c 5aa8 0039
00000370: c38f e43b 3d00 91ba 62f9 6fbb 8c32 32bc
00000380: 6b8b e8bb be10 4d3c 21f5 2f3c 9f8c 603b
00000390: 7ddd 17bc 0925 633a e239 0cbc d576 9c3c
000003a0: 4897 1e3c 2494 42bc 257b 403b 5d00 3abb
000003b0: 9da7 d83a 0347 103b 930d 8c3c 8bd8 993c
000003c0: b8dd 44bc 936e 6cbc fa49 933c bce6 843b
000003d0: 778f 3dbb 9055 573c d184 373c 4428 b43c
000003e0: 9a51 443a cf9c 803c a920 a9ba 651a 633c
000003f0: b239 2bbd b5b9 94bc 7b3f 2c3c 6e8b 8abb

pointer.gru.weight_ih_l0 f4 [384, 128]
0.05425149 0.09313479 -0.009195061 -0.042341184 -0.05045226 0.04882342 0.023192648 -0.08092792
0.087378144 -0.02334561 -0.067885615 0.08645842 -0.027033746 -0.054167863 -0.04206684 -0.05554389
0.035365842 -0.023550324 0.08839491 0.07811041 -0.06747145 0.048775174 0.085965134 0.08649515
0.0035850047 -0.09983206 -0.09116894 0.0075964243 0.07058909 0.086925335 0.10579623 0.019866537
-0.024516042 0.07152134 0.045624845 -0.02197434 0.06300117 -0.105915345 0.006677774 0.054781333
-0.060684834 -0.06607408 -0.009609732 -0.096397586 -0.0030800542 -0.023206688 -0.0007024332 -0.053896535
-0.07043518 0.013612981 0.015025175 -0.05177115 0.06492992 -0.035565462 0.08932917 -0.029421708
-0.0084090475 -0.024561465 -0.046899658 -0.009062909 0.01713206 -0.100541964 0.056414045 -0.008211918
-0.07287569 -0.06883649 0.07033859 -0.10356416 0.101711065 0.10126538 0.09164147 -0.07288533
-0.004499011 -0.034463003 0.022890655 -0.07704368 0.069893725 -0.08263034 0.0495479 -0.066441454
0.020466156 -0.090366825 0.008865768 0.10269968 0.05286183 -0.03294119 -0.0013892665 0.057323467
0.06448122 -0.027150327 0.050285485 0.07992275 0.08770325 -0.09436028 0.029444318 -0.033820778
-0.018564653 0.01374887 0.07503668 -0.026561933 0.09245711 -0.024484092 0.018408436 -0.077682234
-0.09378584 0.056791987 0.08806391 -0.08232808 0.045743242 0.021884913 0.049133904 0.10622261
0.10136181 -0.10249673 0.042174336 0.031908635 -0.10178161 -0.09307397 0.058345366 -0.037626296
0.003448717 0.078200914 0.022611406 -0.019734805 0.09469634 0.0067011933 -0.10367921 0.09762472
0.034869164 0.025325734 0.056988765 0.057532806 -0.020427838 -0.056080315 0.03652861 0.017711693
-0.07147767 -0.034253914 -0.076696955 -0.08232638 0.10702952 0.07793874 -0.0069947126 -0.09856624
0.045216348 0.060795944 -0.04962506 -0.056530125 0.0058345627 -0.0049851225 -0.03509528 -0.023969868
-0.096926846 0.011635903 -0.097434595 -0.031920187 0.009860235 -0.027725732 0.10039512 -0.056630053
-0.006803111 -0.095277295 0.021993652 -0.024514863 -0.068799265 -0.016358346 -0.080882184 -0.088258855
-0.019976655 -0.02183403 -0.022678375 -0.044779398 0.10039313 -0.07370084 -0.09855427 0.06604665
-0.0843395 -0.028109213 0.03973836 0.082969256 -0.07928431 0.039013654 -0.07287292 -0.07819224
-0.098779105 -0.035395116 -0.03395565 -0.046433967 -0.025295734 -0.015646325 -0.018587222 -0.10505535
-0.10243225 -0.013384525 0.0057215807 -0.06604618 -0.106930204 0.10175882 0.07840964 -0.05012067
-0.09634613 -0.086119376 -0.054719727 0.024204783 -0.07359151 -0.10155126 0.10554407 0.02889911
-0.016845562 -0.005701352 0.079846196 0.08291519 -0.03237896 0.0021214103 0.076697715 -0.042373717
-0.0032064423 -0.036202423 -0.06921109 -0.04237983 -0.03480859 0.04519737 -0.07626152 0.011532399
0.012431282 -0.042532943 0.103200704 -0.0151123665 -0.008457825 -0.008197048 0.012846243 0.049987603
0.10379939 -0.030074582 -0.06443698 -0.08082484 0.0050445837 0.07567157 -0.050405722 -0.09290824
-0.043290276 -0.062434636 -0.09932799 -0.062807806 0.08868641 0.08838558 0.09189268 -0.0054033943
-0.030336611 0.09552726 0.046585 -0.01163481 0.020803632 0.02031634 0.07791734 0.040838264
00000000: cf36 5e3d 74bd be3d e2a6 16bc f36d 2dbd
00000010: 07a7 4ebd 11fb 473d 82fe bd3c 8abd a5bd
00000020: 50f3 b23d 4b3f bfbc 9d07 8bbd 1d11 b13d
00000030: e075 ddbc 1fdf 5dbd 474e 2cbd fd81 63bd
00000040: c6db 103d 9cec c0bc 6408 b53d 5af8 9f3d
00000050: 792e 8abd 7ac8 473d 7d0e b03d 5f24 b13d
00000060: 66f2 6a3b c074 ccbd c8b6 babd 6deb f83b
00000070: 0391 903d e905 b23d b2ab d83d 26bf a23c
00000080: ded5 c8bc c879 923d 1ee1 3a3d 8803 b4bc
00000090: c206 813d 25ea d8bd 3ad1 da3b 6462 603d
000000a0: a990 78bd d951 87bd 2372 1dbc 196c c5bd
000000b0: bcda 49bb f41b bebc 7e23 38ba 9dc2 5cbd
000000c0: 5240 90bd fb08 5f3c 272c 763c fc0d 54bd
000000d0: faf9 843d 17ad 11bd 36f2 b63d cb05 f1bc
000000e0: 1ac6 09bc 2035 c9bc db19 40bd 987c 14bc
000000f0: 8958 8c3c f2e8 cdbd 6a12 673d 488b 06bc
00000100: da3f 95bd 25fa 8cbd ae0d 903d 7219 d4bd
00000110: e44d d03d 3964 cf3d 86ae bb3d e744 95bd
00000120: 716c 93bb 1429 0dbd 2f85 bb3c 14c9 9dbd
00000130: 7124 8f3d 183a a9bd bdf2 4a3d 7512 88bd
00000140: a4a8 a73c 3e12 b9bd ba41 113c 3654 d23d
00000150: a585 583d 57ed 06bd 0c18 b6ba 03cc 6a3d
00000160: bb0e 843d 5d6a debc 27f8 4d3d 8aae a33d
00000170: c39d b33d f63f c1bd 3635 f13c a887 0abd
00000180: e614 98bc f142 613c d5ac 993d 6998 d9bc
00000190: 275a bd3d dd92 c8bc 4acd 963c dd17 9fbd
000001a0: ca12 c0bd b79e 683d da5a b43d a09b a8bd
000001b0: 445d 3b3d fd47 b33c a240 493d 3d8b d93d
000001c0: c896 cf3d cee9 d1bd ffbe 2c3d a1b2 023d
000001d0: e072 d0bd 919d bebd 8dfb 6e3d 081e 1abd
000001e0: df03 623b cd27 a03d 8e3b b93c e3aa a1bc
000001f0: 28f0 c13d af95 db3b c455 d4bd 78ef c73d
00000200: f8d2 0e3d ea77 cf3c 0d6d 693d 85a7 6b3d
00000210: 4858 a7bc 79b4 65bd 069f 153d 1d18 913c
00000220: e262 92bd d54d 0cbd 4b13 9dbd bc9a a8bd
00000230: 4b32 db3d 599e 9f3d e733 e5bb 19dd c9bd
00000240: c734 393d 2b05 793d a643 4bbd 228c 67bd
00000250: dc2f bf3b 3d5a a3bb 11c0 0fbd 755c c4bc
00000260: 9581 c6bd 84a4 3e3c ca8b c7bd bebe 02bd
00000270: d38c 213c 1321 e3bc f59b cd3d eaf4 67bd
00000280: a2ec debb be20 c3bd 082c b43c 65d3 c8bc
00000290: a1e6 8cbd f001 86bc 8fa5 a5bd 0fc1 b4bd
000002a0: 15a6 a3bc 48dd b2bc 00c8 b9bc 9a6a 37bd
000002b0: ea9a cd3d 77f0 96bd d2d6 c9bd 7743 873d
000002c0: 30ba acbd 4b45 e6bc b1c4 223d c9eb a93d
000002d0: d05f a2bd c8cc 1f3d 663e 95bd 4123 a0bd
000002e0: b34c cabd 78fa 10bd 1415 0bbd 8b31 3ebd
000002f0: 0039 cfbc b92c 80bc 3b44 98bc 4227 d7bd
00000300: 00c8 d1bd c44a 5bbc 197c bb3b 3843 87bd
00000310: 39fe dabd ee66 d03d 3c95 a03d 554b 4dbd
00000320: 1f51 c5bd 5b5f b0bd cb21 60bd 1c49 c63c
00000330: 25b7 96bd 1bfa cfbd 7d27 d83d d4bd ec3c
00000340: b4ff 89bc 68d2 babb 6786 a33d 70cf a93d
00000350: cd9f 04bd 5c07 0b3b b113 9d3d 1090 2dbd
00000360: 2d23 52bb fe48 14bd 8bbe 8dbd 7996 2dbd
00000370: 7493 0ebd e120 393d 002f 9cbd 63f2 3c3c
00000380: 93ac 4b3c 0637 2ebd e45a d33d dc99 77bc
00000390: b092 0abc e94c 06bc 0c79 523c cdbf 4c3d
000003a0: c694 d43d f85e f6bc 89f7 83bd 7e87 a5bd
000003b0: 094d a53b b2f9 9a3d 3b76 4ebd ad46 bebd
000003c0: 2551 31bd 76bb 7fbd 796c cbbd 61a1 80bd
000003d0: 38a1 b53d 8003 b53d 3b32 bc3d f50e b1bb
000003e0: 7c84 f8bc cca3 c33d eacf 3e3d ee9f 3ebc
000003f0: 616c aa3c 746e a63c 2093 9f3d 0646 273d

pointer.gru.weight_hh_l0 f4 [384, 128]
-0.018615462 -0.08805231 -0.05784803 0.028934812 0.012528276 0.023421014 -0.07097005 0.044964004
-0.08776615 -0.06266159 0.05525011 -0.05110651 -0.073055215 -0.06190078 -0.031984195 -0.09666065
0.08416394 -0.08018768 -0.033526104 0.047774177 0.0033523338 -0.04471954 -0.104264684 0.10256426
0.0003529254 0.07095721 -0.11175607 -0.09412745 -0.06684845 0.103716195 -0.09257705 -0.048978336
-0.102599904 -0.06279901 0.0768011 0.104024105 0.024150373 0.02430381 -0.057060044 -0.058857795
0.037977736 0.0714516 0.033564325 -0.092309296 0.027041668 -0.098473385 0.061499756 0.075334884
-0.08597324 -0.023889562 0.017978052 0.08388597 -0.08255424 0.06492482 -0.110777386 0.07727834
-0.060472686 -0.04755567 -0.07949548 -0.020935869 0.067387395 -0.09830344 0.0799892 0.024243122
0.054793615 0.08486901 -0.041231204 -0.02121753 0.047075234 0.080733344 0.075533256 -0.031517625
0.00016725052 0.023061005 0.025050536 -0.02085654 -0.02450247 0.06548546 -0.031680644 -3.8339163e-06
-0.071567945 -0.015271456 0.038413186 0.089147545 -0.08504512 0.033578992 -0.04285219 -0.0532986
-0.06063872 0.110158056 0.08075431 -0.01584321 0.0068133594 -0.0034497532 0.08068448 0.019751903
0.0610422 -0.009361699 -0.1018156 0.045140706 0.0952934 -0.036322944 0.03139218 0.087233245
-0.019213768 -0.09012764 0.10918961 -0.009117257 -0.03034284 -0.011192882 -0.10957843 0.06421943
0.04037535 -0.020142281 0.03075072 0.05892612 -0.07379283 0.06848517 0.025264475 -0.07471418
0.10368656 0.08575689 0.032422688 0.0576279 -0.105937764 -0.07684705 0.07404874 -0.030278023
-0.0776842 0.01903991 0.07032926 -0.0026002857 0.046994627 -0.004140574 -0.045957908 0.0136756925
0.0925778 -0.10222442 -0.074320726 -0.003966842 -0.0559453 0.059378758 0.08760495 0.027495563
0.0035940919 -0.03467628 -0.057886202 -0.08871175 -0.021162765 0.017641472 0.08824986 0.016525676
0.04658437 -0.074161835 0.04611274 0.028492998 0.0644627 0.100355245 -0.06332081 -0.021127349
0.0855372 -0.11043713 -0.10837819 0.044583514 0.049016133 -0.10290957 0.093118764 -0.0961539
-0.06898433 -0.058365114 0.06497346 -0.03293528 0.047753002 -0.06931282 -0.081467934 0.08470025
-0.017496329 0.012057254 0.0022475035 0.10850617 0.0371535 0.09679343 -0.08944423 -0.019467868
-0.0080703385 0.07011118 -0.09718941 0.08949503 0.072023466 0.022738911 -0.051657636 0.06868807
-0.014002909 -0.07607538 -0.015804403 0.07325967 0.0300081 0.050429802 -0.10090554 -0.02205986
0.09677816 0.09729137 0.037224345 0.0543568 -0.038455293 0.03552582 -0.09207799 0.09396891
-0.06961851 0.07226369 0.021575943 -0.05336415 0.05224728 -0.066532716 -0.09567643 0.088304095
0.04218252 -0.029498553 0.020140624 0.106873795 0.09344004 0.01678217 -0.09944041 -0.0805321
0.089958936 0.08564697 -0.030450897 0.09663924 -0.033348117 -0.042031806 0.07516251 -0.04021425
0.047162343 0.05299622 0.022348624 0.08382195 0.070723385 0.079943575 -0.053112287 -0.035767894
0.034118976 -0.08027983 -0.057387337 0.08941183 -0.08438887 0.055461314 -0.07132963 0.07216462
-0.012147294 0.04956147 0.014558972 -0.0019181775 0.015540127 -0.08209057 -0.05139159 0.012259391
00000000: 747f 98bc c554 b4bd 0ef2 6cbd b308 ed3c
00000010: 6643 4d3c 6ddd bf3c bf58 91bd 2d2c 383d
00000020: bdbe b3bd b854 80bd f04d 623d 0f55 51bd
00000030: f99d 95bd ac8b 7dbd dc01 03bd 05f6 c5bd
00000040: 255e ac3d 7039 a4bd ab52 09bd dbae 433d
00000050: d4b2 5b3b d62b 37bd b988 d5bd 360d d23d
00000060: d808 b939 0452 913d 5ee0 e4bd e4c5 c0bd
00000070: d7e7 88bd 2869 d43d 0999 bdbd 829d 48bd
00000080: e61f d2bd c49c 80bd e549 9d3d 970a d53d
00000090: 01d7 c53c c918 c73c cbb7 69bd df14 71bd
000000a0: 8b8e 1b3d 3755 923d bf7a 093d a80c bdbd
000000b0: 7d86 dd3c 6aac c9bd 2be7 7b3d 2d49 9a3d
000000c0: bd12 b0bd 0bb4 c3bc b546 933c 68cc ab3d
000000d0: 3312 a9bd 4ef7 843d 41df e2bd 1b44 9e3d
000000e0: 35b2 77bd bcc9 42bd 87ce a2bd b381 abbc
000000f0: 6702 8a3d 5053 c9bd 61d1 a33d 8399 c63c
00000100: 456f 603d cecf ad3d 0de2 28bd 63d0 adbc
00000110: f6d1 403d 8657 a53d 2eb1 9a3d a018 01bd
00000120: f85f 2f39 6fea bc3c c836 cd3c 56db aabc
00000130: 67b9 c8bc 3e1d 863d 90c3 01bd 17a5 80b6
00000140: 3792 92bd 2135 7abc 2557 1d3d fd92 b63d
00000150: 232c aebd 208a 093d c785 2fbd a24f 5abd
00000160: 4e60 78bd 8c9a e13d 8462 a53d 9fc9 81bc
00000170: 9a42 df3b 4115 62bb e83d a53d bece a13c
00000180: 6307 7a3d d061 19bc b384 d0bd 76e5 383d
00000190: 3029 c33d 5ec7 14bd 1695 003d 58a7 b23d
000001a0: 3166 9dbc d794 b8bd cd9e df3d 8c60 15bc
000001b0: 8c91 f8bc 5a62 37bc a86a e0bd 7a85 833d
000001c0: 9f60 253d 6d01 a5bc efe8 fb3c 845c 713d
000001d0: b220 97bd f441 8c3d 72f7 ce3c bf03 99bd
000001e0: 9f59 d43d 4fa1 af3d a7cd 043d 3c0b 6c3d
000001f0: e6f5 d8bd fc61 9dbd dea6 973d 9e09 f8bc
00000200: e518 9fbd 96f9 9b3c c908 903d 8e69 2abb
00000210: 707d 403d a7ad 87bb 5c3e 3cbd 0310 603c
00000220: 6e99 bd3d 095b d1bd 7735 98bd 48fc 81bb
00000230: e626 65bd 2437 733d 396a b33d 603e e13c
00000240: db8a 6b3b b708 0ebd 151a 6dbd 82ae b5bd
00000250: 895d adbc d984 903c 58bc b43d db60 873c
00000260: 41cf 3e3d 29e2 97bd b6e0 3c3d 266a e93c
00000270: 0505 843d 0d87 cd3d 57ae 81bd 4313 adbc
00000280: 212e af3d dd2c e2bd 62f5 ddbd 349d 363d
00000290: 24c5 483d 41c2 d2bd 0db5 be3d 56ec c4bd
000002a0: a847 8dbd 4210 6fbd ce10 853d 25e7 06bd
000002b0: a798 433d e1f3 8dbd a9d8 a6bd 5377 ad3d
000002c0: 7654 8fbc ca8b 453c da4a 133b 7c38 de3d
000002d0: 452e 183d a23b c63d 892e b7bd 147b 9fbc
000002e0: 7439 04bc 7396 8f3d 3e0b c7bd 2c49 b73d
000002f0: 0a81 933d f446 ba3c f596 53bd 55ac 8c3d
00000300: 756c 65bc 69cd 9bbd 3c78 81bc 2a09 963d
00000310: 8cd3 f53c 7b8f 4e3d 90a7 cebd e1b6 b4bc
00000320: a133 c63d b340 c73d 8e78 183d 3ca5 5e3d
00000330: 4c83 1dbd 8683 113d 6393 bcbd c672 c03d
00000340: 2694 8ebd fcfe 933d 08c0 b03c 5e94 5abd
00000350: 3e01 563d 4e42 88bd 01f2 c3bd c7d8 b43d
00000360: 94c7 2c3d f3a6 f1bc f3fd a43c a6e0 da3d
00000370: 7e5d bf3d c37a 893c 6aa7 cbbd 03ee a4bd
00000380: 643c b83d ae67 af3d 2974 f9bc cbea c53d
00000390: 0998 08bd 8b29 2cbd cdee 993d b3b7 24bd
000003a0: 4d2d 413d 9012 593d 7614 b73c d8aa ab3d
000003b0: 6cd7 903d 75b9 a33d 458c 59bd 5b81 12bd
000003c0: 57c0 0b3d c069 a4bd fc0e 6bbd 8d1d b73d
000003d0: 12d4 acbd 672b 633d 4515 92bd 0bcb 933d
000003e0: 7205 47bc f800 4b3d c188 6e3c 5b6b fbba
000003f0: 049c 7e3c 1a1f a8bd fd7f 52bd 9ddb 483c

pointer.gru.bias_ih_l0 f4 [384]
-0.005089782 -0.03316352 -0.068522505 -0.025668837 -0.024566941 -0.052441496 0.0442629 0.05798891
0.016016541 -0.039170146 0.07345261 -0.0007833038 -0.07405132 -0.06620048 0.017342428 0.011143665
-0.023224583 -0.045593556 0.03173782 -0.02235292 -0.08185636 0.005620515 0.081371605 0.069085255
-0.017504582 -0.05483856 0.02277498 0.09044444 0.073774114 0.02155574 -0.0331348 0.040374402
0.057813827 -0.07194419 0.056769446 0.08031162 -0.081631795 0.08087876 0.07865842 -0.032548547
0.029048305 0.016376331 0.028086217 -0.024291879 0.01754555 -0.01976069 0.053674825 0.043297682
0.055440407 -0.023571573 -0.058091097 -0.03914637 0.001192238 -0.05092647 0.01434026 0.08809119
-0.012294373 -0.04324761 0.07110479 0.06660555 0.06469053 -0.07157994 -0.0648513 -0.07128026
-0.078028485 -0.061711043 0.0668236 -0.089571185 0.04862774 0.011878785 0.0140352305 -0.093854606
-0.028992228 -0.020336851 0.029889287 -0.01137541 0.047109935 0.037008867 0.007439858 0.021223668
-0.07789149 0.0939234 0.079508476 -0.04459537 0.06480226 0.01757664 0.086977296 0.027921658
-0.01019229 -0.06632581 0.010234077 0.06880801 -0.017037185 0.065247305 0.049340155 0.04022927
0.014852635 0.037714887 0.06968007 0.083661504 0.056575377 0.054818224 -0.0034793876 -0.018656883
-0.018208064 0.014734985 0.014837856 -0.09217075 0.011256264 -0.07472029 -0.019407215 0.04518365
-0.041025363 0.08773578 -0.058409117 -0.065244794 -0.0036936651 0.004251703 0.013238311 0.022059444
0.0022819568 0.019568678 0.08675362 -0.035023287 -0.052354563 0.044683717 0.016745267 -0.051938225
-0.027076205 0.04131137 0.0031928513 0.015147423 0.054740205 0.022064503 0.039709803 -0.063254245
0.06404268 -0.030069169 -0.068980075 0.04585138 -0.0076187267 -0.13208732 -0.11669673 -0.0017545711
-0.076950006 -0.025850948 -0.028495323 -0.061288346 0.016981935 -0.042327613 -0.041446667 -0.030522276
-0.077737436 -0.13881259 -0.04297801 -0.072149575 0.06684588 0.035555735 -0.03417406 -0.12210723
-0.090036504 -0.016996212 -0.067114346 0.018150706 0.022876726 -0.004472787 0.013880277 -0.020549437
-0.07839425 0.049983237 0.016239839 -0.078892365 0.015125705 0.071759515 0.01172792 -0.0151467845
-0.091978125 -0.08963352 0.04899787 -0.09736486 -0.0037098767 -0.02860526 -0.060490597 -0.08468353
-0.057416134 -0.022143366 -0.02147257 0.018852305 -0.11329727 -0.018516243 0.072374225 0.0075965403
-0.0144345965 0.09227884 -0.012910919 -0.13458416 0.008580733 0.024763575 -0.13449235 -0.05478931
-0.03594345 -0.10380342 -0.11315546 -0.08732429 0.07187622 -0.118494 -0.004509856 0.08476608
-0.061791804 -0.108999446 0.04785434 -0.011062174 -0.06498612 -0.09831529 -0.053544838 -0.10648293
0.019725462 -0.0849807 0.008124766 0.049097773 -0.096357904 -0.12587754 -0.0694443 -0.07162051
-0.04786798 0.011823736 -0.013131826 -0.04474675 0.081594005 -0.062171735 -0.07850326 -0.086063586
-0.061853267 -0.06583843 -0.097652666 -0.10298224 -0.037765447 -0.09235378 0.031437136 -0.13097046
-0.07164511 0.027734067 -0.10202951 0.030734856 0.0121856965 -0.07258406 -0.019960217 -0.037377317
-0.0061974702 -0.022067161 0.022272477 -0.012242393 0.048054125 0.03434266 -0.114793584 0.010103097
00000000: 30c8 a6bb 79d6 07bd 8755 8cbd 7447 d2bc
00000010: 9c40 c9bc e5cc 56bd 044d 353d c785 6d3d
00000020: 1f35 833c e070 20bd 526e 963d a156 4dba
00000030: 38a8 97bd 1e94 87bd b511 8e3c eb93 363c
00000040: 7b41 bebc 4fc0 3abd 84ff 013d 791d b7bc
00000050: 4fa4 a7bd 4c2c b83b 28a6 a63d 927c 8d3d
00000060: c565 8fbc 669e 60bd 9892 ba3c ef3a b93d
00000070: e216 973d aa95 b03c 5bb8 07bd a15f 253d
00000080: 31ce 6c3d 7a57 93bd 1487 683d 6b7a a43d
00000090: 922e a7bd c3a3 a53d aa17 a13d a051 05bd
000000a0: b6f6 ed3c a827 863c 1115 e63c c3ff c6bc
000000b0: afbb 8f3c 2ce1 a1bc 22da 5b3d e958 313d
000000c0: 7b15 633d 2c19 c1bc eef0 6dbd f257 20bd
000000d0: de44 9c3a 4698 50bd 69f3 6a3c 2769 b43d
000000e0: 566e 49bc 6824 31bd 639f 913d 7e68 883d
000000f0: 787c 843d 8198 92bd c2d0 84bd 63fb 91bd
00000100: 66cd 9fbd b8c4 7cbd d0da 883d 1971 b7bd
00000110: e22d 473d 3c9f 423c 06f4 653c d836 c0bd
00000120: 1c81 edbc 7899 a6bc 61da f43c ed5f 3abc
00000130: 59f6 403d 9c96 173d 0dca f33b 42dd ad3c
00000140: 9385 9fbd e95a c03d 57d5 a23d a2a9 36bd
00000150: 0cb7 843d e3fc 8f3c 2721 b23d f6bb e43c
00000160: 90fd 26bc d4d5 87bd d5ac 273c 37eb 8c3d
00000170: 9191 8bbc 61a0 853d e718 4a3d 72c7 243d
00000180: 7758 733c ed7a 1a3d 6db4 8e3d b956 ab3d
00000190: 95bb 673d 1389 603d 7006 64bb 52d6 98bc
000001a0: 1429 95bc 026b 713c 7b1a 733c 05c4 bcbd
000001b0: 316c 383c f406 99bd e1fb 9ebc 7e12 393d
000001c0: 360a 28bd d1ae b33d 663e 6fbd 109f 85bd
000001d0: 6b11 72bb df51 8b3b 80e5 583c 02b6 b43c
000001e0: e28c 153b 7e4e a03c e2ab b13d 9474 0fbd
000001f0: bd71 56bd 4606 373d 5f2d 893c 2dbd 54bd
00000200: ebce ddbc 1c36 293d 283f 513b e62c 783c
00000210: 4437 603d 9ec0 b43c bfa6 223d 718b 81bd
00000220: cf28 833d 9e53 f6bc 6d45 8dbd a8ce 3b3d
00000230: 83a6 f9bb e641 07be b2fe eebd a3f9 e5ba
00000240: f797 9dbd 5ec5 d3bc 066f e9bc 7d09 7bbd
00000250: b31d 8b3c b85f 2dbd fbc3 29bd da09 fabc
00000260: ce34 9fbd e324 0ebe b609 30bd 28c3 93bd
00000270: 7ee6 883d e4a2 113d 19fa 0bbd 5b13 fabd
00000280: 0f65 b8bd a43b 8bbc 3f73 89bd cab0 943c
00000290: f967 bb3c 7590 92bb 1a6a 633c 4b57 a8bc
000002a0: 2a8d a0bd 39bb 4c3d 6909 853c 5292 a1bd
000002b0: ced1 773c a7f6 923d 7626 403c 382a 78bc
000002c0: 075f bcbd c791 b7bd feb1 483d 3a67 c7bd
000002d0: 6721 73bb 9455 eabc fdc4 77bd 8f6e adbd
000002e0: 2e2d 6bbd 0166 b5bc 3ee7 afbc 2670 9a3c
000002f0: 6608 e8bd 60af 97bc f038 943d 66ec f83b
00000300: 167f 6cbc b0fc bc3d 5288 53bc 6ed0 09be
00000310: 3496 0c3c fbdc ca3c 5db8 09be c16a 60bd
00000320: 7039 13bd e396 d4bd 0dbe e7bd 14d7 b2bd
00000330: d733 933d fbac f2bd 6ac7 93bb d799 ad3d
00000340: 6719 7dbd 1a3b dfbd ea02 443d 1f3e 35bc
00000350: 7117 85bd 8759 c9bd d551 5bbd b913 dabd
00000360: 4b97 a13c 5c0a aebd bd1d 053c bf1a 493d
00000370: 4b57 c5bd 0be6 00be d038 8ebd c6ad 92bd
00000380: 3711 44bd 58b8 413c df26 57bc 5e48 37bd
00000390: c21a a73d caa7 7ebd 51c6 a0bd 1b42 b0bd
000003a0: da59 7dbd 4cd6 86bd 1ffe c7bd 5ae8 d2bd
000003b0: f1af 1abd fb23 bdbd 3ac4 003d 1f1d 06be
000003c0: acba 92bd 8e32 e33c d9f4 d0bd aac7 fb3c
000003d0: 84a6 473c f4a6 94bd 9c83 a3bc f518 19bd
000003e0: 2614 cbbb 31c6 b4bc c574 b63c 5194 48bc
000003f0: 67d4 443d e4aa 0c3d e618 ebbd 7687 253c
