baselines/PTR/vrp/checkpoints/critic.pt (torch, 27847 bytes, 9 tensors)

static_encoder.conv.weight f4 [128, 1, 1]
-0.32192883 -0.34932747 -0.23608167 -0.29551277 0.033881273 0.31209907 0.23100421 -0.3408459
-0.34327435 -0.3474827 0.096195236 0.1283902 -0.31942734 0.20171662 0.028270632 0.11003563
0.14518946 0.035615902 -0.028635295 -0.39965528 0.40643418 -0.43644276 0.26098716 0.107326835
-0.05385303 -0.2823912 -0.22296882 0.0023273116 0.19224392 0.33337432 -0.30521363 -0.047136284
0.40140557 -0.3484182 -0.28701603 0.3294269 -0.36890903 0.11093585 -0.33205402 -0.09021678
0.41982177 -0.012076314 0.40286332 -0.12202047 -0.013627869 0.25725412 0.12958619 0.2633119
-0.3222938 0.0613688 -0.2876632 0.16284777 -0.053100802 0.06661902 0.16697644 0.086632274
0.23149015 0.32541066 -0.32962707 -0.14280683 -0.0047771093 0.20675841 0.17896852 0.2125908
0.21178196 0.019006805 -0.086094774 -0.4153972 -0.116703294 -0.40243146 -0.12848556 0.38309425
0.1876081 -0.0048225494 0.20648053 0.40657142 0.41762817 0.21462524 0.31817186 0.13187343
-0.37611154 0.12783341 0.40869975 0.16420208 0.046963654 0.20756887 0.3866201 0.076590255
-0.115005165 0.15786813 -0.027225943 0.24587545 0.28394094 0.36695787 0.12258758 0.028564641
0.0047826287 0.09008759 -0.22326674 -0.11269475 0.32082826 0.14302267 0.22451322 -0.11393421
0.09448627 -0.045406114 0.24234238 0.41130465 -0.20812564 0.20830846 0.054473653 -0.46495184
0.21756692 -0.24685429 0.12206792 -0.18772054 0.07982435 0.2135566 0.04657509 0.03807802
-0.12512134 -0.06860881 0.31578606 -0.11521409 0.05187456 -0.040786352 0.35972187 0.2572025
00000000: dbd3 a4be 0ddb b2be 65bf 71be 734d 97be
00000010: 17c7 0a3d 73cb 9f3e 5e8c 6c3e 5b83 aebe
00000020: a8c1 afbe 41e9 b1be 0202 c53d b878 033e
00000030: fb8b a3be cd8e 4e3e d097 e73c 5c5a e13d
00000040: 8cac 143e fbe1 113d 9194 eabc 9e9f ccbe
00000050: 2418 d03e 6d75 dfbe 1ca0 853e 2cce db3d
00000060: ff94 5cbd 9495 90be f051 64be cf85 183b
00000070: 97db 443e 0ab0 aa3e f644 9cbe fa11 41bd
00000080: 0885 cd3e df63 b2be c4f3 92be a5aa a83e
00000090: a5e1 bcbe 5632 e33d fc02 aabe 93c3 b8bd
000000a0: e1f2 d63e bbdb 45bc 1a44 ce3e dee5 f9bd
000000b0: 6d47 5fbc d0b6 833e 3eb2 043e d1d0 863e
000000c0: b103 a5be da5d 7b3d 9748 93be 91c1 263e
000000d0: 3a80 59bd 8e6f 883d dffb 2a3e 436c b13d
000000e0: c10b 6d3e 3a9c a63e e1c4 a8be f43b 12be
000000f0: 4c89 9cbb 7ab8 533e 8643 373e 67b1 593e
00000100: 5fdd 583e 29b4 9b3c 7552 b0bd f1ae d4be
00000110: 2302 efbd 7f0b cebe b891 03be ee24 c43e
00000120: 561c 403e 7a06 9ebb a26f 533e 212a d03e
00000130: 5cd3 d53e b8c6 5b3e 6ce7 a23e d409 073e
00000140: b191 c0be c3e6 023e 1841 d13e 9724 283e
00000150: f65c 403d ef8c 543e 12f3 c53e 5adb 9c3d
00000160: d487 ebbd 2fa8 213e f108 dfbc c6c6 7b3e
00000170: b560 913e e7e1 bb3e 320f fb3d 6500 ea3c
00000180: 99b7 9c3b d87f b83d 09a0 64be 81cc e6bd
00000190: 9a43 a43e 8974 123e cbe6 653e 5756 e9bd
000001a0: 0482 c13d c3fb 39bd 9a28 783e 8696 d23e
000001b0: e31e 55be d04e 553e c41f 5f3d 2b0e eebe
000001c0: ddc9 5e3e 5fc7 7cbe bffe f93d d039 40be
000001d0: f37a a33d 95ae 5a3e 86c5 3e3d b3f7 1b3d
000001e0: cf1f 00be c782 8cbd b6ae a13e 5df5 ebbd
000001f0: 6b7a 543d 970f 27bd 772d b83e 0cb0 833e

static_encoder.conv.bias f4 [128]
0.009322172 -0.4101329 0.50759536 0.9330923 -0.50839543 0.939059 0.6597508 -0.46002564
0.31109515 -0.43136597 0.33543232 0.2025563 -0.49855712 0.84114033 -0.1793292 0.48192543
-0.25445405 -0.64790756 -0.08278741 -1.0005121 0.59233195 0.04909697 -0.73637176 -0.7951187
0.28376704 0.9722454 -0.58516294 -0.64754254 0.0066634454 0.5980901 -0.04841329 -0.906486
0.12757617 0.116175614 -0.33972567 -0.49607056 0.42794493 0.27225506 0.6186117 -0.5355562
-0.2977066 0.7982775 0.6282173 -0.028859293 -0.3327673 0.39122438 -0.105328895 -0.5685805
-0.92236876 -0.50479615 0.14637531 0.4883877 0.07586424 0.14054501 0.67676455 0.26339278
-0.34476808 -0.94588804 0.89510846 -0.35147834 0.88568157 0.78298795 -0.7089025 -0.8076197
-0.7675609 0.3271612 -0.6393934 0.16075674 -0.8858793 -0.698598 0.5447919 0.14870425
-0.6122755 0.34557998 0.37536886 0.7259879 0.6410832 0.69332135 -0.5973471 0.2957253
0.87686986 0.32094845 0.36782318 0.43054745 0.8159588 0.70530844 -0.53336674 0.6676723
-0.008044173 -0.0581629 0.6363911 -0.5285406 -0.10651611 -0.14582308 0.8073151 -0.83699095
0.08918428 -0.78207034 -0.38709563 0.011518994 0.07294611 0.9410313 0.61336565 0.05725002
-0.6957314 0.24555321 -0.7551933 -0.579598 -0.4252137 -0.62693995 0.600403 0.02784286
-0.72622144 0.6345915 0.09523118 -0.18129161 -0.6070264 0.35098627 0.86986434 0.3960692
0.52161574 0.28820312 -0.11813019 -0.55581975 -0.9896846 0.26203117 -0.5086554 0.69765425
00000000: 06bc 183c f1fc d1be c5f1 013f 23df 6e3f
00000010: 3426 02bf 2c66 703f 6ee5 283f 7b88 ebbe
00000020: dd47 9f3e 00dc dcbe c9bd ab3e eb6a 4f3e
00000030: e142 ffbe f954 573f 13a2 37be eebe f63e
00000040: cd47 82be 45dd 25bf 728c a9bd c810 80bf
00000050: 11a3 173f e819 493d dc82 3cbf e68c 4bbf
00000060: ea49 913e 13e5 783f 3dcd 15bf 59c5 25bf
00000070: 0859 da3b 6f1c 193f 044d 46bd 770f 68bf
00000080: 54a3 023e 7bed ed3d 86f0 adbe f6fc fdbe
00000090: 991b db3e 0465 8b3e 565d 1e3f 361a 09bf
000000a0: 006d 98be ea5b 4c3f d9d2 203f 536a ecbc
000000b0: 7a60 aabe 904e c83e adb6 d7bd 7e8e 11bf
000000c0: 5c20 6cbf 523a 01bf 69e3 153e f40d fa3e
000000d0: b65e 9b3d 08eb 0f3e 7140 2d3f 6bdb 863e
000000e0: 7185 b0be b825 72bf d425 653f f8f4 b3be
000000f0: 07bc 623f e671 483f a27a 35bf 2ac0 4ebf
00000100: df7e 44bf ac81 a73e 49af 23bf 6a9d 243e
00000110: fcc8 62bf 52d7 32bf 7b77 0b3f ed45 183e
00000120: 16be 1cbf dcef b03e 5930 c03e 58da 393f
00000130: 071e 243f 827d 313f bdeb 18bf 4e69 973e
00000140: 8b7a 603f 5b53 a43e 5253 bc3e b770 dc3e
00000150: ade2 503f 188f 343f b98a 08bf 92ec 2a3f
00000160: b5cb 03bc 393c 6ebd 87ea 223f 704e 07bf
00000170: 1e25 dabd a552 15be 34ac 4e3f 0a45 56bf
00000180: 3fa6 b63d c335 48bf 6631 c6be 2aba 3c3c
00000190: c564 953d 6de7 703f 8805 1d3f ff7e 6a3d
000001a0: 741b 32bf 4d72 7b3e 5954 41bf 8960 14bf
000001b0: 9cb5 d9be 237f 20bf 03b4 193f b616 e43c
000001c0: a6e9 39bf 9774 223f 9108 c33d 82a4 39be
000001d0: 1566 1bbf 79b4 b33e 6eaf 5e3f 95c9 ca3e
000001e0: 9c88 053f 5c8f 933e 3eee f1bd 344a 0ebf
000001f0: f85b 7dbf f328 863e 3e37 02bf 7899 323f

dynamic_encoder.conv.weight f4 [128, 2, 1]
-0.18212341 -0.41423392 -0.0058892644 0.040686008 -0.16938692 -0.049281258 0.16029385 0.14807254
0.13935933 -0.33503878 -0.06328927 -0.33714178 -0.007633154 -0.28320202 0.09298096 -0.09262511
-0.12275692 -0.23980148 0.00057160767 0.28876123 -0.20954353 -0.21565302 0.09075041 -0.07476241
-0.077021025 -0.13746239 0.17754996 0.17238143 -0.11506054 -0.1596695 0.13025355 -0.24919514
-0.159398 -0.2873576 -0.1466335 0.0075689717 0.045131974 0.26081166 0.13208835 0.16451813
-0.124741055 -0.020660272 -0.07505907 0.38117346 0.1627111 0.2932149 -0.09901711 -0.028396713
0.17512888 0.28038412 -0.068146415 0.3181554 -0.034941733 0.058090597 0.18344633 0.10089243
-0.07509305 -0.48484933 -0.094277926 0.1892333 -0.11338553 -0.15006492 -0.10599871 0.21383908
0.100332744 -0.03470073 0.077504635 0.25212523 0.16298369 -0.27959868 0.19906688 0.115831956
0.1634757 0.04960332 -0.16138124 0.33530486 -0.020362956 0.46671638 -0.08945822 -0.24208291
0.06660158 0.06643685 -0.14912383 -0.14658271 0.016541211 -0.1974762 0.20000646 -0.30529884
-0.005509746 -0.22317463 0.018989895 -0.14460218 0.19853322 -0.20997152 0.012413922 -0.17574039
-0.09127512 -0.23969632 0.012898183 0.1523721 -0.09860957 0.19282092 0.07047424 0.37674505
-0.1215728 0.27709717 0.059733164 0.11367459 -0.2211364 0.35055774 -0.00853589 -0.40371433
-0.16961393 0.10838906 -0.019662583 0.023844082 -0.0027975773 0.33155882 0.11370877 0.21080558
0.09964225 -0.3446943 0.20491795 0.076313265 -0.17293015 0.16264394 -0.1262106 0.17455597
-0.20498082 0.19509995 0.0073573515 0.12328146 0.21890458 0.10285139 -0.008679201 0.16667865
-0.1444644 0.17332105 -0.053528614 -0.020521643 -0.1106969 -0.36116815 -0.10120169 0.35780796
-0.17663291 0.24388516 0.13458604 0.14161317 0.07205979 -0.25311685 -0.095553964 -0.2451098
-0.01987709 -0.23796272 -0.17308624 0.43574166 0.15130845 -0.18302955 -0.049149614 0.091661036
0.20399462 0.28715378 0.032121476 -0.003982541 -0.11263257 0.27945188 -0.065997325 -0.21047556
-0.13506654 -0.14102042 0.0020389413 -0.008866578 -0.17943868 -0.016581962 -0.031181157 0.30405837
0.0873745 0.25253636 0.1748517 0.32650638 0.2042003 -0.4284498 0.14588468 -0.10621146
0.00067657424 -0.3073209 0.14962107 -0.12757193 -0.07459616 0.18737961 0.08205767 0.07394319
0.1419333 -0.04423432 -0.059605744 0.09029216 0.008405512 -0.07425388 -0.20713058 0.3202363
0.14560725 0.17127451 -0.09740336 -0.16846408 -0.1322285 -0.080365375 -0.13291904 -0.115334325
-0.12596346 0.12986994 -0.15914972 0.15184824 0.020398417 0.27114904 0.08699004 -0.41130868
-0.15117423 -0.31643382 0.13429864 -0.017725587 0.2128533 -0.3994969 -0.19662677 0.3062119
0.01828741 0.08833726 0.012248221 0.044747435 0.041863304 0.27041987 -0.10493451 0.32529253
0.14917523 0.25243375 -0.057540525 0.026321419 0.19808985 0.18461898 0.04556994 -0.036302965
0.012158931 -0.06272889 -0.19355808 0.28899223 0.19129568 0.029160438 -0.205038 0.23357822
0.009524925 0.23785174 -0.13976324 -0.3169156 0.06731564 -0.013422971 0.15720037 -0.38557714
00000000: 8f7e 3abe 7816 d4be bbfa c0bb 5fa6 263d
00000010: c473 2dbe 25db 49bd 1224 243e 54a0 173e
00000020: 36b4 0e3e 348a abbe ce9d 81bd d99d acbe
00000030: 891f fabb dbff 90be cd6c be3d 3cb2 bdbd
00000040: fb67 fbbd 858e 75be f1d7 153a 83d8 933e
00000050: 9492 56be 25d4 5cbe 5adb b93d 091d 99bd
00000060: 33bd 9dbd f1c2 0cbe a8cf 353e c284 303e
00000070: dca4 ebbd 6780 23be 3061 053e 032d 7fbe
00000080: 3b39 23be 8920 93be 1827 16be 2305 f83b
00000090: 4edc 383d 1b89 853e 2b42 073e 7177 283e
000000a0: 3d78 ffbd bb3f a9bc 92b8 99bd 2b29 c33e
000000b0: bd9d 263e 4320 963e 7cc9 cabd 39a0 e8bc
000000c0: fc54 333e 828e 8f3e 5990 8bbd 44e5 a23e
000000d0: 101f 0fbd 68f0 6d3d 5bd9 3b3e b1a0 ce3d
000000e0: 63ca 99bd 2c3e f8be c914 c1bd 60c6 413e
000000f0: ac36 e8bd 9eaa 19be da15 d9bd a2f8 5a3e
00000100: 417b cd3d 5a22 0ebd c0ba 9e3d 8f16 813e
00000110: 32e5 263e 8f27 8fbe 30d8 4b3e 4e39 ed3d
00000120: 2d66 273e da2c 4b3d 2041 25be 14ad ab3e
00000130: 37d0 a6bc 73f5 ee3e df35 b7bd 95e4 77be
00000140: 6966 883d 0b10 883d ebb3 18be c719 16be
00000150: 6f81 873c 3337 4abe 7ece 4c3e 2150 9cbe
00000160: 198b b4bb e487 64be b290 9b3c 9812 14be
00000170: 4b4c 4b3e c602 57be c363 4b3c 4af5 33be
00000180: 73ee babd f472 75be e752 533c 6f07 1c3e
00000190: d0f3 c9bd d972 453e cc54 903d bae4 c03e
000001a0: 29fb f8bd aedf 8d3e c3aa 743d 39ce e83d
000001b0: 9571 62be 4e7c b33e 1eda 0bbc a5b3 cebe
000001c0: 46af 2dbe 15fb dd3d 6d13 a1bc aa54 c33c
000001d0: 8f57 37bb 14c2 a93e 25e0 e83d 6bdd 573e
000001e0: 3c11 cc3d c57b b0be 03d6 513e 214a 9c3d
000001f0: 9a14 31be 228c 263e 5a3d 01be cdbe 323e
00000200: 7ee6 51be 48c8 473e f015 f13b fd7a fc3d
00000210: 8628 603e c0a3 d23d 3533 0ebc cfad 2a3e
00000220: 7aee 13be 137b 313e d240 5bbd 011d a8bc
00000230: 0eb5 e2bd 08eb b8be d542 cfbd 9b32 b73e
00000240: 42df 34be 08bd 793e ecd0 093e 0b03 113e
00000250: 1594 933d 8898 81be ccb1 c3bd 10fe 7abe
00000260: 47d5 a2bc 80ac 73be 853d 31be 8819 df3e
00000270: 9af0 1a3e 196c 3bbe 1b51 49bd c8b8 bb3d
00000280: f7e3 503e d205 933e cf91 033d fa7f 82bb
00000290: e8ab e6bd 5114 8f3e 9b29 87bd e886 57be
000002a0: e24e 0abe a867 10be c29f 053b 2045 11bc
000002b0: c6be 37be e5d6 87bc a06f ffbc 8aad 9b3e
000002c0: 67f1 b23d 724c 813e 530c 333e d82b a73e
000002d0: e219 513e c65d dbbe cb62 153e 6585 d9bd
000002e0: 215c 313a 2a59 9dbe 4436 193e 37a2 02be
000002f0: dfc5 98bd 71e0 3f3e da0d a83d 876f 973d
00000300: f756 113e 0c2f 35bd 2725 74bd 19eb b83d
00000310: 46b7 093c 6b12 98bd 0a1a 54be 03f6 a33e
00000320: 111a 153e 9662 2f3e 6a7b c7bd d981 2cbe
00000330: e866 07be 9a96 a4bd ee1b 08be 6734 ecbd
00000340: 91fc 00be a0fc 043e 25f8 22be 1b7e 1b3e
00000350: 951a a73c 0cd4 8a3e d627 b23d 0d97 d2be
00000360: 6bcd 1abe 9d03 a2be 9585 093e 4035 91bc
00000370: 37f6 593e dc8a ccbe 8758 49be cec7 9c3e
00000380: 7acf 953c 2aea b43d c3ac 483c 1649 373d
00000390: db78 2b3d 7974 8a3e e8e7 d6bd be8c a63e
000003a0: 64c1 183e ff3e 813e 9daf 6bbd 04a0 d73c
000003b0: 11d8 4a3e c20c 3d3e 8ca7 3a3d 6bb2 14bd
000003c0: 4136 473c 0178 80bd 1734 46be caf6 933e
000003d0: 04e3 433e dfe1 ee3c 7bf5 51be 212f 6f3e
000003e0: 6e0e 1c3c 688f 733e 181e 0fbe c342 a2be
000003f0: c8dc 893d 05ec 5bbc 22f9 203e 5e6a c5be

dynamic_encoder.conv.bias f4 [128]
-0.61288804 -0.06552265 0.5882359 0.2578209 -0.1838478 0.069545805 -0.40047076 0.53355867
-0.5730831 0.24860711 0.69371706 -0.3415608 -0.2212296 0.030207241 -0.04666315 -0.59047955
0.6017632 -0.024905222 0.49778178 -0.086292766 -0.2218521 -0.12716392 0.36908233 0.38909772
-0.011964208 0.5782456 -0.6074939 0.63955593 0.32523122 -0.4151197 0.07114092 -0.28234893
-0.4442303 -0.4870436 0.23289917 0.69359744 0.6377869 0.6823401 -0.5712118 0.096866556
-0.32376543 0.60663414 0.2603174 -0.33554044 0.07150421 0.40701774 0.12865853 -0.121050216
0.048087176 -0.6411245 -0.6488959 0.61033803 -0.70511365 0.33142486 0.22578907 0.45189032
-0.23078747 -0.2904843 -0.44165394 0.16150057 -0.19483466 -0.58920497 -0.42377645 0.35810828
-0.24279346 0.04078405 -0.2608932 0.08312135 0.682101 0.031347465 0.5534981 0.4278246
-0.027277712 0.5891271 -0.15656677 0.21893479 -0.6310974 0.18365586 0.57591057 -0.0702199
0.09708721 0.3219271 0.2813946 -0.3020617 -0.26123127 0.36230138 -0.07726058 0.47946164
-0.66728115 0.54933906 -0.69708985 0.06034045 -0.45449415 0.12545092 -0.41493243 -0.06957568
-0.6137803 0.6065822 0.32327476 0.0071423817 0.15532365 -0.060628872 0.36803338 -0.43060526
0.21050712 0.1463874 -0.22191699 -0.07721391 0.6810262 0.5602459 0.34312207 -0.11568691
0.15096998 0.5655368 -0.18740438 0.35132644 -0.51972365 0.39146346 0.6187112 -0.3815142
0.53085387 -0.025701262 -0.62973475 0.63933605 0.44396845 -0.51501536 0.22118028 -0.36996907
00000000: 3be6 1cbf bd30 86bd a196 163f 1a01 843e
00000010: 9942 3cbe 086e 8e3d 810a cdbe 4d97 083f
00000020: 93b5 12bf dd92 7e3e 7197 313f 0fe1 aebe
00000030: 038a 62be 2d75 f73c dc21 3fbd ab29 17bf
00000040: 270d 1a3f 0906 ccbc 41dd fe3e 43ba b0bd
00000050: 322d 63be 4237 02be 5cf8 bc3e d137 c73e
00000060: 8705 44bc e707 143f b884 1bbf f0b9 233f
00000070: b584 a63e 928a d4be 55b2 913d 0a90 90be
00000080: 2772 e3be c75d f9be 1f7d 6e3e 9a8f 313f
00000090: 0146 233f d7ad 2e3f f03a 12bf f961 c63d
000000a0: 95c4 a5be 604c 1b3f 5248 853e f5cb abbe
000000b0: cd70 923d a164 d03e 10bf 033e 2de9 f7bd
000000c0: 0ff7 443d bc20 24bf 0b1e 26bf 1d3f 1c3f
000000d0: 5482 34bf 85b0 a93e 4035 673e 2b5e e73e
000000e0: 8d53 6cbe 5cba 94be 7720 e2be 6860 253e
000000f0: bd82 47be 23d6 16bf 3af9 d8be f859 b73e
00000100: d99e 78be 2d0d 273d cb93 85be 873b aa3d
00000110: 2c9e 2e3f 3366 003d 0db2 0d3f d30b db3e
00000120: 8275 dfbc 09d1 163f 0a53 20be 7130 603e
00000130: 998f 21bf 4810 3c3e e06e 133f 73cf 8fbd
00000140: a9d5 c63d a1d3 a43e f412 903e d5a7 9abe
00000150: 1bc0 85be 917f b93e cc3a 9ebd ff7b f53e
00000160: f0d2 2abf 7ca1 0c3f 7b74 32bf 8c27 773d
00000170: 75b3 e8be 3576 003e 0672 d4be b27d 8ebd
00000180: b520 1dbf f948 1b3f 4584 a53e a40a ea3b
00000190: 2a0d 1f3e fb55 78bd df6e bc3e 4b78 dcbe
000001a0: 2e8f 573e 94e6 153e 353e 63be 5422 9ebd
000001b0: bc57 2e3f 466c 0f3f b2ad af3e 42ed ecbd
000001c0: e097 1a3e 05c7 103f efe6 3fbe 0fe1 b33e
000001d0: 9c0c 05bf e66d c83e db63 1e3f d455 c3be
000001e0: 0ae6 073f 748b d2bc 4c36 21bf 87ab 233f
000001f0: d54f e33e 0cd8 03bf 157d 623e 966c bdbe

fc1.weight f4 [20, 256, 1]
0.13658676 -0.10103264 0.13008712 -0.09305425 0.08374203 0.13939595 -0.043513615 -0.03589505
0.071287766 0.04832594 -0.05442966 0.0193548 -0.016052397 -0.12471342 -0.13487554 0.00097435055
-0.13406505 -0.0072446964 0.059314843 0.02967121 0.07595076 -0.039812997 -0.12616388 0.0809716
-0.12618445 -0.041733403 0.06379095 -0.037746273 -0.12116456 -0.12200774 0.1393436 0.058051746
0.059116933 0.011178025 -0.13983911 0.09871884 0.06478244 0.018731346 -0.10499131 -0.057141762
0.08152487 -0.014603711 0.118953004 0.06261665 0.10388969 -0.1273293 -0.044799313 -0.06810221
-0.051581487 -0.12175156 0.055987198 0.07062432 0.044804234 -0.034323927 -0.03936705 0.052929863
-0.06723897 0.021776678 0.09331529 0.05195451 0.14273877 0.092340745 0.04758142 0.126577
0.06175449 0.07485603 -0.0885992 0.13886584 -0.12809353 -0.019531444 0.047932245 0.09740723
0.0026771396 -0.06413849 -0.09952927 -0.0035708668 -0.08590677 -0.052295618 -0.050276488 -0.10742999
-0.09007094 -0.04366168 -0.13882732 0.013980291 0.039850153 -0.12118393 -0.07685591 0.074383505
0.05357796 0.03461232 -0.009061029 -0.056129374 0.04744042 -0.06825521 0.045660455 0.14014024
-0.059307847 0.10571541 -0.07186174 0.14624843 -0.13546619 -0.07321903 0.098166004 0.02316251
-0.10073519 0.018700728 -0.03154351 -0.017216029 0.053340044 -0.014660025 0.0557992 -0.03078837
0.14430046 0.015001694 -0.046176605 0.10572625 -0.069942795 -0.05978628 0.05317089 0.009913733
-0.124871224 0.0003758724 -0.019896595 0.08291726 -0.08124537 -0.08848662 0.1295059 0.1268797
0.122131914 0.12461011 -0.0009607464 0.024279317 -0.14225526 -0.09342479 -0.12750706 0.006399357
0.13279174 -0.12646434 0.007305142 0.0057332623 -0.09157448 0.09060799 -0.06627224 0.11082204
-0.07131383 0.04816429 0.12290866 0.025840793 0.096851885 -0.10385754 -0.013277409 0.14586061
0.01937888 -0.13227497 -0.08489984 -0.0159388 -0.025291387 0.11520987 -0.08813277 -0.10689461
0.019943858 -0.092196725 0.005692766 0.016789518 0.002805518 -0.092065975 0.124220125 0.005959313
-0.011381279 0.11136409 0.06414833 -0.0201356 -0.029608814 -0.08968918 0.04885267 0.018150358
0.068371914 0.030716904 0.1052458 0.0011722789 0.0551607 -0.02571085 -0.07364492 -0.020028945
0.07845871 -0.029744646 -0.09386661 0.14286992 -0.012773808 0.14495547 -0.03697658 0.014101709
-0.07243503 0.14475057 -0.0673692 -0.034502484 0.07408731 -0.109516494 -0.05934815 0.073713385
0.039102577 0.08539246 0.07208639 0.07730395 0.13768391 0.11268336 -0.03199014 0.10431722
0.0045282384 0.084150575 -0.012157261 -0.12551785 -0.08158099 0.057490706 -0.008003015 0.014518606
0.13458784 -0.13755912 0.14550307 0.080878966 0.1180925 -0.11740744 0.048613086 0.10606767
-0.042408813 -0.117162056 -0.096931525 -0.122067004 -0.117461994 0.0741432 -0.038044035 -0.120874904
0.1373399 -0.11297116 -0.0040713563 0.03813566 -0.040388327 -0.0054856455 0.08442693 0.14160556
-0.045594946 0.015059204 0.13398525 -0.030034147 0.03330762 0.11251851 -0.13537735 0.041500673
-0.09850078 0.08164551 0.027254958 0.02314736 -0.05951991 0.118128724 -0.011878534 0.05206614
00000000: 66dd 0b3e 33ea cebd 8f35 053e 3a93 bebd
00000010: f180 ab3d d0bd 0e3e 553b 32bd b006 13bd
00000020: 52ff 913d 6cf1 453d a3f1 5ebd f58d 9e3c
00000030: 5180 83bc c069 ffbd d01c 0abe 8f6b 7f3a
00000040: 5948 09be eb64 edbb 1ff4 723d 0a11 f33c
00000050: 128c 9b3d f412 23bd 1b31 01be 70d4 a53d
00000060: 7f36 01be a5f0 2abd d4a4 823d d69b 1abd
00000070: 2025 f8bd 32df f9bd 17b0 0e3e abc7 6d3d
00000080: 9924 723d 0924 373c fc31 0fbe 1a2d ca3d
00000090: a8ac 843d 7b72 993c af05 d7bd 7b0d 6abd
000000a0: 83f6 a63d 6744 6fbc a29d f33d 283d 803d
000000b0: 1ec4 d43d 9d62 02be 7c7f 37bd 2c79 8bbd
000000c0: 1c47 53bd e258 f9bd d552 653d 7ca3 903d
000000d0: a584 373d 3f97 0cbd 583f 21bd fccc 583d
000000e0: 96b4 89bd 0165 b23c 161c bf3d 41ce 543d
000000f0: 1d2a 123e 251d bd3d bce4 423d 679d 013e
00000100: 47f2 7c3d 1e4e 993d 7f73 b5bd d932 0e3e
00000110: f32a 03be 6800 a0bc 9a54 443d 717d c73d
00000120: f372 2f3b 0a5b 83bd 00d6 cbbd 3405 6abb
00000130: e3ef afbd ee33 56bd b8ee 4dbd 4104 dcbd
00000140: 1d77 b8bd 97d6 32bd c028 0ebe 970d 653c
00000150: ea39 233d 482f f8bd a266 9dbd 6156 983d
00000160: 9074 5b3d a6c5 0d3d b674 14bc eae7 65bd
00000170: e350 423d 63c9 8bbd 7506 3b3d ec80 0f3e
00000180: c9ec 72bd 5281 d83d 3f2c 93bd 26c2 153e
00000190: a6b7 0abe dcf3 95bd 420b c93d 4ebf bd3c
000001a0: 404e cebd 4532 993c c433 01bd a108 8dbc
000001b0: 177b 5a3d 9a30 70bc b48d 643d e437 fcbc
000001c0: 80c3 133e aac9 753c ae23 3dbd 0187 d83d
000001d0: 2b3e 8fbd 75e2 74bd b8c9 593d 366d 223c
000001e0: 7cbc ffbd bd10 c539 2ffe a2bc 86d0 a93d
000001f0: f963 a6bd 7938 b5bd 329d 043e c1ec 013e
00000200: 4c20 fa3d 9633 ff3d 99da 7bba 6be5 c63c
00000210: 5dab 11be 7f55 bfbd 3691 02be b3b1 d13b
00000220: 8ffa 073e de7f 01be f95f ef3b 17de bb3b
00000230: 678b bbbd af90 b93d bdb9 87bd aaf6 e23d
00000240: fc0c 92bd eb47 453d 89b7 fb3d 12b0 d33c
00000250: 485a c63d 43b3 d4bd 7d89 59bc 7c5c 153e
00000260: 75c0 9e3c 1773 07be f8df adbd 1692 82bc
00000270: e22f cfbc 27f3 eb3d f47e b4bd 90eb dabd
00000280: 4d61 a33c a3d1 bcbd 628a ba3b 2c8a 893c
00000290: c8dc 373b 168d bcbd 1f67 fe3d 5746 c33b
000002a0: 8b78 3abc db12 e43d 3360 833d 6af3 a4bc
000002b0: 2f8e f2bc f6ae b7bd bd19 483d 0fb0 943c
000002c0: 9306 8c3d 04a2 fb3c 1c8b d73d 27a7 993a
000002d0: 30f0 613d 8f9f d2bc 26d3 96bd be13 a4bc
000002e0: f6ae a03d 0bab f3bc 233d c0bd 7e4c 123e
000002f0: 3c49 51bc 356f 143e c174 17bd db0a 673c
00000300: d158 94bd 7e39 143e ddf8 89bd 7a52 0dbd
00000310: 16bb 973d 2f4a e0bd 0c17 73bd 0bf7 963d
00000320: 062a 203d 3ee2 ae3d 07a2 933d 8951 9e3d
00000330: 03fd 0c3e 89c6 e63d 1808 03bd 44a4 d53d
00000340: 9e61 943b 2357 ac3d 402f 47bc c087 00be
00000350: ef13 a7bd 607b 6b3d 141f 03bc 72df 6d3c
00000360: 65d1 093e 4cdc 0cbe c2fe 143e dfa3 a53d
00000370: 7bda f13d 5073 f0bd 841e 473d 023a d93d
00000380: ddb4 2dbd a9f2 efbd 0984 c6bd 44fe f9bd
00000390: ea8f f0bd 64d8 973d 10d4 1bbd 438d f7bd
000003a0: d5a2 0c3e 6c5d e7bd 0369 85bb 2334 1c3d
000003b0: 3b6e 25bd eec0 b3bb 07e8 ac3d 0c01 113e
000003c0: c4c1 3abd e1ba 763c 6e33 093e 2c0a f6bc
000003d0: 926d 083d 1b70 e63d 5ca0 0abe 9cfc 293d
000003e0: c7ba c9bd c335 a73d ca45 df3c 889f bd3c
000003f0: 26cb 73bd 79ed f13d 2f9e 42bc 4e43 553d

fc1.bias f4 [20]
-0.05308608 -0.036153138 -0.02549944 -0.07008879 -0.02270183 0.053785473 -0.026706142 -0.061759606
-0.034430996 0.0372902 -0.04959555 0.028292462 0.0022271082 -0.022568552 -0.06789304 0.036442846
0.04123131 0.032305256 0.038117144 0.0012055412
00000000: ca70 59bd 5015 14bd 34e4 d0bc b68a 8fbd
00000010: 30f9 b9bc 284e 5c3d d7c6 dabc a4f7 7cbd
00000020: 8407 0dbd 9cbd 183d b424 4bbd 98c5 e73c
00000030: adf4 113b afe1 b8bc 820b 8bbd 1845 153d
00000040: 2ae2 283d 8452 043d b920 1c3d 4003 9e3a

fc2.weight f4 [20, 20, 1]
-0.30445188 0.041181862 0.34139684 0.14508618 -0.090481445 -0.368769 -0.18042427 -0.17360355
0.044607785 -0.12895352 0.27354023 -0.137077 0.032989997 -0.15085876 -0.31784916 0.14062814
0.03510087 0.16941062 0.3446079 -0.24386111 0.12604363 0.39212605 0.015130735 0.052786436
-0.25482115 -0.38446212 0.04907058 -0.30325595 -0.2324093 0.13260862 -0.106739685 -0.1672599
0.2323247 -0.13698176 0.35018277 -0.037060075 0.1840695 -0.10246771 0.050608005 -0.13318066
0.029803328 -0.052810892 0.04399959 -0.010026652 0.2135139 -0.1815588 -0.13971713 -0.18123174
-0.18620017 0.04718192 0.024441795 -0.08874658 -0.14156519 0.26863658 0.26154953 -0.08138553
-0.12236443 -0.15843084 -0.11470608 -0.38695747 0.14012508 0.14915016 0.12864049 0.3258397
-0.104196526 -0.111185215 0.0905874 -0.00743787 0.15556413 -0.3706068 0.25170627 0.44173512
-0.15614094 -0.051022016 -0.1655669 -0.3831988 0.24483483 0.23329414 -0.02277178 -0.38152382
-0.2549924 0.3657506 0.21701443 -0.21624742 0.21474944 0.22754617 0.13215525 -0.33112577
-0.018778868 0.26189443 0.36858845 0.114028 -0.06469823 0.27400526 -0.22069183 0.22546826
-0.27249962 0.07899686 0.33302498 0.11805496 -0.2654874 0.20275334 0.08225555 0.056375466
0.12623243 -0.3486645 0.2650323 -0.07143756 0.3201324 -0.06891813 -0.3208097 0.055907432
0.39063087 -0.078231566 -0.35992366 0.23577331 -0.36251315 0.24977852 0.29876292 -0.21290755
0.18493813 0.16735427 -0.3595962 0.18743272 -0.29565755 0.056230277 -0.21483853 -0.276872
0.19455983 -0.2519387 -0.034923673 -0.0027128381 0.05806325 -0.3209765 -0.015415653 0.25160202
0.18188013 -0.20449819 -0.22723383 0.25468427 0.35389143 0.02160764 -0.18396321 -0.1567267
-0.033150528 0.12773247 0.053463325 0.24658974 -0.24175647 0.3288101 0.15764269 -0.15896459
0.08228274 0.004865619 -0.18289196 -0.07707177 -0.0017961344 -0.029186735 0.26016515 -0.13749447
0.26115945 -0.24907649 0.23186617 0.3297593 -0.20276587 0.29045585 -0.15656576 -0.24061087
0.3066575 0.2271746 0.023554048 0.26198536 0.14163765 -0.08671552 -0.073598176 0.3681081
-0.2659519 0.16152799 -0.044835214 0.23882101 0.32998747 0.15780659 0.094471835 0.11830283
-0.16858335 -0.25357515 -0.36535928 -0.22207235 -0.087483145 -0.3605956 -0.066637315 0.16478613
-0.40639496 0.23976159 0.2894305 0.24705184 0.12319535 0.09152349 -0.02287113 0.09973811
-0.085230395 -0.31940717 -0.09307788 -0.07393446 0.2986038 -0.31447566 0.20840757 -0.13570942
-0.16268829 -0.067868374 0.27834705 -0.080614865 0.04722392 -0.2121114 0.24012244 -0.20546548
-0.34941253 -0.18610963 0.07443563 0.37179905 0.38186443 0.13481607 0.34885272 -0.23328564
-0.3253051 0.29113 0.37401128 0.08716693 -0.330911 0.14486614 0.22701052 -0.09142704
-0.2877675 -0.009042239 0.3598667 0.055882342 0.0015683799 0.30302495 0.12348859 0.19247891
-0.08909714 0.10556756 -0.35829106 0.016947754 -0.37601122 0.2596824 0.103391185 0.27077112
-0.36547926 0.15069108 0.20973788 -0.27004465 -0.08093581 0.3485831 -0.1594593 0.19605848
00000000: 1ee1 9bbe 50ae 283d 91cb ae3e 7991 143e
00000010: 564e b9bd 4acf bcbe 24c1 38be 21c5 31be
00000020: a7b6 363d 640c 04be 770d 8c3e ea5d 0cbe
00000030: 8520 073d b87a 1abe 20bd a2be d300 103e
00000040: eec5 0f3d fa79 2d3e 7270 b03e bab6 79be
00000050: 9511 013e bfc4 c83e e7e6 773c 9736 583d
00000060: eb77 82be 38d8 c4be 3cfe 483d 5d44 9bbe
00000070: b4fc 6dbe 8eca 073e 569a dabd 2e46 2bbe
00000080: 87e6 6d3e f244 0cbe 284b b33e 4ecc 17bd
00000090: b77c 3c3e 97da d1bd 574a 4f3d 8360 08be
000000a0: 1c26 f43c 3c50 58bd ea38 343d d446 24bc
000000b0: 63a3 5a3e 8dea 39be 0212 0fbe d094 39be
000000c0: 42ab 3ebe d441 413d 293a c83c c4c0 b5bd
000000d0: 77f6 10be bc8a 893e d2e9 853e 75ad a6bd
000000e0: 349a fabd b23b 22be 05eb eabd 4a1f c6be
000000f0: f37c 0f3e d2ba 183e 55ba 033e 76d4 a63e
00000100: fd64 d5bd 13b5 e3bd e385 b93d 60b9 f3bb
00000110: 344c 1f3e 2dc0 bdbe a5df 803e 1b2b e23e
00000120: 69e3 1fbe 76fc 50bd 5f8a 29be a232 c4be
00000130: fbb5 7a3e a9e4 6e3e e28b babc 1757 c3be
00000140: 5d8e 82be aa43 bb3e 0839 5e3e f76f 5dbe
00000150: 47e7 5b3e dd01 693e b553 073e 5189 a9be
00000160: 24d6 99bc 0717 863e a0b7 bc3e 8387 e93d
00000170: 8180 84bd 6b4a 8c3e 0afd 61be 27e1 663e
00000180: 1285 8bbe 1bc9 a13d 4082 aa3e cdc6 f13d
00000190: f7ed 87be 929e 4f3e 9975 a83d f6e9 663d
000001a0: 1343 013e 2784 b2be 50b2 873e db4d 92bd
000001b0: 65e8 a33e f324 8dbd 2b41 a4be 31ff 643d
000001c0: c500 c83e df37 a0bd ea47 b8be 8f6e 713e
000001d0: 539b b9be f1c5 7f3e 74f7 983e 7004 5abe
000001e0: 6c60 3d3e eb5e 2b3e fe1c b8be 5dee 3f3e
000001f0: 6d60 97be b851 663d a2fe 5bbe 2bc2 8dbe
00000200: b13a 473e 1cfe 80be 200c 0fbd dfc9 31bb
00000210: bbd3 6d3d 0857 a4be ef91 7cbc fbd1 803e
00000220: c93e 3a3e f967 51be fcaf 68be fa65 823e
00000230: 4231 b53e 8102 b13c da60 3cbe f77c 20be
00000240: d9c8 07bd 4dcc 023e 5cfc 5a3d 0582 7c3e
00000250: 028f 77be cc59 a83e 166d 213e 9dc7 22be
00000260: da83 a83d c56f 9f3b 0848 3bbe ced7 9dbd
00000270: 456c ebba 0519 efbc 5e34 853e 5acb 0cbe
00000280: b1b6 853e e80d 7fbe 536e 6d3e 36d6 a83e
00000290: dba1 4fbe a1b6 943e c652 20be b262 76be
000002a0: 3602 9d3e 75a0 683e 6bf4 c03c f222 863e
000002b0: 7609 113e e897 b1bd a4ba 96bd aa78 bc3e
000002c0: d92a 88be 9867 253e 21a5 37bd 7f8d 743e
000002d0: 1ef4 a83e 0d98 213e 737a c13d c148 f23d
000002e0: 1da1 2cbe 9ad4 81be 5f10 bbbe ef66 63be
000002f0: 5d2a b3bd fd9f b8be 2579 88bd b2bd 283e
00000300: 0013 d0be 1084 753e 3c30 943e 28fb 7c3e
00000310: d84d fc3d ab70 bb3d 3c5c bbbc 7f43 cc3d
00000320: 468d aebd 5689 a3be 9e9f bebd f36a 97bd
00000330: 99e2 983e f402 a1be cb68 553e 69f7 0abe
00000340: c297 26be 93fe 8abd 8183 8e3e 6819 a5bd
00000350: de6d 413d bb33 59be a8e2 753e 8b65 52be
00000360: 33e6 b2be 8693 3ebe b571 983d 725c be3e
00000370: bc83 c33e 390d 0a3e d39c b23e 6ee2 6ebe
00000380: 648e a6be fe0e 953e 687e bf3e 9384 b23d
00000390: 2b6d a9be ca57 143e 7275 683e 1a3e bbbd
000003a0: 4356 93be e625 14bc 7340 b83e e2e4 643d
000003b0: 1992 cd3a 1626 9b3e 96e7 fc3d 3119 453e
000003c0: 9078 b6bd ce33 d83d ed71 b7be 04d6 8a3c
000003d0: 8b84 c0be 17f5 843e c2be d33d 83a2 8a3e
000003e0: 1920 bbbe c34e 1a3e 87c5 563e 4b43 8abe
000003f0: adc1 a5bd 7c79 b23e 4c49 23be 8ec3 483e

fc2.bias f4 [20]
-0.14098714 0.12967119 0.05951995 -0.055124182 -0.19733654 -0.18851884 0.11590836 0.010323993
0.04696383 0.012142999 -0.14931743 -0.16292389 0.1348881 0.07720333 0.16847545 -0.119486205
0.15710238 -0.018217202 -0.1158937 -0.11853472
00000000: ef5e 10be 86c8 043e 31cb 733d e5c9 61bd
00000010: 9712 4abe 150b 41be 5d61 ed3d f725 293c
00000020: 255d 403d 6ef3 463c abe6 18be 85d5 26be
00000030: 1b20 0a3e c81c 9e3d d484 2c3e 2fb5 f4bd
00000040: 72df 203e 3e3c 95bc ad59 edbd 55c2 f2bd

fc3.weight f4 [1, 20, 1]
0.22793373 -0.17124213 0.22762005 0.10174135 -0.19273493 0.07279876 -0.5131593 0.457556
-0.5153755 -0.37091732 0.06406986 0.24033792 0.02816324 -0.383159 0.38261586 0.51766765
-0.014676944 0.07211651 -0.46292812 -0.020633101
00000000: 7667 693e 195a 2fbe 3b15 693e c55d d03d
00000010: 4e5c 45be 8417 953d 685e 03bf c844 ea3e
00000020: a6ef 03bf e0e8 bdbe 0f37 833d 251b 763e
00000030: 98b6 e63c 6b2d c4be 3ae6 c33e de85 043f
00000040: 9177 70bc d2b1 933d ea04 edbe c006 a9bc
